assets/ai_models/body_composition_model.tflite (tflite, 11748 bytes, 6 tensors)

arith.constant f4 [2, 32]
-0.37599662 0.33703437 0.4133017 0.36569282 -0.29887104 0.5880896 0.1702934 -0.32341632
0.3993426 -0.25207287 0.58219004 0.53107446 0.41299367 0.327052 0.25041738 -0.19042206
0.07506433 0.18957078 -0.23073903 0.449103 -0.39934114 0.21940032 -0.047832966 0.42201158
0.13958499 0.024764685 0.5917525 -0.016552387 0.3887685 0.20946117 -0.16069399 0.47021437
-0.31264994 0.19385107 0.1510033 0.19133091 -0.66119426 0.4138983 0.33465156 -0.36189553
0.09804814 0.15794542 0.44697985 -0.10278141 0.2108445 0.6309946 0.44461262 -0.32910988
0.649348 0.4769983 -0.8918167 0.008811795 -0.20124745 0.27058288 -0.2157851 0.57730836
0.39081073 0.47310597 -0.16633753 -0.37006837 0.5645132 -0.33055705 0.5267014 0.016614707
00000000: a182 c0be c58f ac3e 489c d33e 173c bb3e
00000010: a005 99be 0a8d 163f 6561 2e3e d396 a5be
00000020: a276 cc3e b20f 81be 680a 153f 7ff4 073f
00000030: e873 d33e 5c73 a73e b536 803e 00fe 42be
00000040: 54bb 993d d81e 423e da46 6cbe d4f0 e53e
00000050: 7176 ccbe 7aaa 603e 80ec 43bd e711 d83e
00000060: 5eef 0e3e 4fdf ca3c 187d 173f df98 87bc
00000070: aa0c c73e fd7c 563e f78c 24be f0bf f03e
00000080: a713 a0be e580 463e 9ca0 1a3e 40ec 433e
00000090: 0744 29bf 7aea d33e 7357 ab3e 5f4a b9be
000000a0: 77cd c83d 72bc 213e 8bda e43e 0f7f d2bd
000000b0: 9fe7 573e dd88 213f 44a4 e33e 1781 a8be
000000c0: ac3b 263f 1f39 f43e 194e 64bf 595f 103c
000000d0: d013 4ebe d789 8a3e c5f6 5cbe 7bca 133f
000000e0: 5818 c83e f23a f23e 6354 2abe 9a79 bdbe
000000f0: f083 103f c63e a9be e7d5 063f 911b 883c

arith.constant1 f4 [32, 64]
0.122353755 -0.2305719 0.1521841 0.026740927 -0.21271339 -0.17615314 0.02667656 -0.063274294
0.09936674 0.036893047 -0.0036601573 0.006164193 -0.2718193 -0.046431564 0.031526025 -0.056067396
0.07855185 0.13839568 0.09833701 0.019012388 -0.19061919 -0.24397892 0.13608465 0.12920576
-0.20794596 -0.055866644 -0.0014254887 0.18388014 -0.05203759 -0.1312847 0.14298628 -0.18758267
-0.007934826 -0.097188465 -0.09792786 0.071857035 -0.016894797 -0.32699364 0.1874089 0.17004353
0.16991188 0.14607196 0.028237186 -0.22718607 0.051796604 -0.17210482 -0.22996114 0.1226597
-0.22508065 0.1467115 0.15519863 -0.015217162 -0.13084085 0.012260006 0.12313213 -0.067925945
0.10997472 -0.116997756 -0.043885525 -0.036327347 0.03122736 -0.1652949 0.14304739 -0.1535682
0.40900975 0.19198033 0.33051562 0.19868593 0.042209443 -0.034440532 0.1704172 0.37351793
0.16823427 0.16463082 0.25198683 -0.051262666 0.36805755 0.24266227 0.015140466 0.36086997
0.12943275 0.18692411 0.25846323 0.23869321 -0.027023837 0.38676128 0.012840558 0.02348935
0.2561396 0.11118799 0.36137256 0.07217937 0.38916314 0.2753429 -0.053761967 0.10959576
0.1385237 -0.006798487 0.42875278 0.013064013 0.09539809 0.09912492 0.15475094 0.13979495
0.10277337 0.14376982 0.374806 0.40250707 0.04169625 0.4310469 0.28591082 0.3866071
0.22191755 0.2433721 0.31681028 0.14587551 0.3256988 -0.050449304 0.40223017 0.25561577
0.29065916 0.21865256 0.24575604 -0.022684176 0.33477637 0.22640784 0.23862298 0.10453167
-0.04596594 0.31397453 0.33946788 0.029320031 0.3191813 -0.052432712 -0.09600794 0.28834265
0.13280381 0.29166412 0.12525947 0.26690295 0.3193963 0.078441225 0.13493231 -0.06280846
0.39427292 0.20083167 0.15464385 0.076209515 0.1437011 -0.011297635 -0.053280912 -0.014995166
0.3301365 -0.09283055 0.07586275 0.22900765 0.1286424 0.32330507 0.2459207 0.39960524
0.3845521 0.4389782 0.120858744 0.021770732 0.34382153 -0.053542346 0.27032286 0.21262158
-0.007395812 0.3601588 0.399696 0.25652048 0.05087042 0.20275946 -0.055399206 0.21889761
0.26709405 0.38162386 -0.06929895 0.28997514 0.17759198 0.10138295 0.12857063 0.0590591
0.06445402 0.23765028 0.38344604 0.26938233 0.35172614 0.09537711 -0.06678757 0.12893789
0.37342352 0.04368055 -0.10160175 -0.09672424 0.062484737 0.37630457 0.32220083 0.16772589
-0.03595121 0.27165815 0.14083622 0.092555195 0.09930534 0.3493749 0.08766602 0.2526227
0.06721933 0.1264296 0.10757909 0.3229106 0.27003652 0.33361644 -0.054732475 0.09292025
0.13047004 0.15140103 0.013991697 -0.013321188 0.033977073 0.40674722 0.3386572 0.42151976
-0.060070764 0.080192946 0.18757474 -0.1280891 0.18544303 0.3764736 0.10687544 0.1761754
0.12126981 0.27285758 0.44954056 -0.02715229 0.05724375 0.20650055 0.084680475 0.24055691
0.35519814 0.1247565 0.32545003 0.31605676 0.45413712 0.3354297 0.1381003 0.1237905
-0.06383625 -0.018764194 0.28373483 0.2390057 0.040211156 0.18451144 0.25834492 0.19712514
00000000: 9b94 fa3d 0a1b 6cbe 26d6 1b3e ca0f db3c
00000010: 8ad1 59be 7d61 34be cd88 da3c f495 81bd
00000020: ca80 cb3d 2a1d 173d 40df 6fbb 00fd c93b
00000030: e62b 8bbe 062f 3ebd 6f21 013d eda6 65bd
00000040: cbdf a03d 99b7 0d3e ea64 c93d debf 9b3c
00000050: ad31 43be 9cd5 79be c659 0b3e 844e 043e
00000060: c9ef 54be 6cd4 64bd 77d7 baba 134b 3c3e
00000070: 5e25 55bd 7f6f 06be ff6a 123e ac15 40be
00000080: 1301 02bc bf0a c7bd 678e c8bd c829 933d
00000090: f566 8abc b66b a7be 1ee8 3f3e e41f 2e3e
000000a0: 61fd 2d3e e393 153e ac51 e73c 77a3 68be
000000b0: ad28 543d 3f3c 30be ef7a 6bbe 0235 fb3d
000000c0: 8b7b 66be 8a3b 163e 64ec 1e3e 6751 79bc
000000d0: 25fb 05be 31de 483c b32c fc3d c21c 8bbd
000000e0: 6d3a e13d 859c efbd 4fc1 33bd fccb 14bd
000000f0: 85d0 ff3c 1143 29be 047b 123e fb40 1dbe
00000100: ba69 d13e 7e96 443e 5839 a93e 5374 4b3e
00000110: cfe3 2c3d 8411 0dbd d981 2e3e be3d bf3e
00000120: 9b45 2c3e fb94 283e 6b04 813e cdf8 51bd
00000130: 0a72 bc3e 757c 783e b80f 783c f3c3 b83e
00000140: 058a 043e 0969 3f3e 4b55 843e fe6b 743e
00000150: 1861 ddbc 9305 c63e 3461 523c bd6c c03c
00000160: bb24 833e 87b6 e33d d305 b93e c7d2 933d
00000170: 6440 c73e bff9 8c3e 8235 5cbd be73 e03d
00000180: 28d9 0d3e d8c5 debb 7c85 db3e 710a 563c
00000190: 1360 c33d 0202 cb3d 0877 1e3e 6826 0f3e
000001a0: d87a d23d 6538 133e 92e6 bf3e 6815 ce3e
000001b0: b0c9 2a3d 2eb2 dc3e e762 923e 5ef1 c53e
000001c0: 5b3e 633e 8936 793e f534 a23e 6460 153e
000001d0: fec1 a63e eea3 4ebd 1df1 cd3e 12e0 823e
000001e0: 47d1 943e 75e6 5f3e 79a7 7b3e 2ad4 b9bc
000001f0: cf67 ab3e 75d7 673e 9559 743e b314 d63d
00000200: c846 3cbd 45c1 a03e bcce ad3e 9030 f03c
00000210: bb6b a33e afc3 56bd d09f c4bd a6a1 933e
00000220: b9fd 073e 0055 953e 0544 003e 81a7 883e
00000230: e987 a33e cba5 a03d b22b 0a3e b9a1 80bd
00000240: 24de c93e d1a6 4d3e f55a 1e3e bc13 9c3d
00000250: 6226 133e b719 39bc 163d 5abd 49ae 75bc
00000260: a707 a93e f21d bebd ee5d 9b3d fb80 6a3e
00000270: d5ba 033e 3e88 a53e a3d2 7b3e 0f99 cc3e
00000280: 03e4 c43e c0c1 e03e ca84 f73d 8958 b23c
00000290: 6009 b03e 384f 5bbd c267 8a3e 79b9 593e
000002a0: 9158 f2bb bc66 b83e f4a4 cc3e a756 833e
000002b0: 805d 503d 2da0 4f3e 47ea 62bd b226 603e
000002c0: 8dc0 883e 3464 c33e 9cec 8dbd 9f77 943e
000002d0: acda 353e dda1 cf3d 05a8 033e f4e7 713d
000002e0: 7800 843d 985a 733e 0a53 c43e 7bec 893e
000002f0: 7315 b43e 1355 c33d ecc7 88bd 4b08 043e
00000300: 5e31 bf3e 60ea 323d 9414 d0bd 5c17 c6bd
00000310: ffef 7f3d feaa c03e 82f7 a43e 56c0 2b3e
00000320: 9341 13bd c716 8b3e 5f37 103e 948d bd3d
00000330: 9960 cb3d 44e1 b23e 3e8a b33d c357 813e
00000340: 4aaa 893d c376 013e 6d52 dc3d 8a54 a53e
00000350: 3a42 8a3e c6cf aa3e 292f 60bd f94c be3d
00000360: f099 053e df08 1b3e 6e3d 653c 1d41 5abc
00000370: 8b2b 0b3d 2c41 d03e 7a64 ad3e 70d1 d73e
00000380: c30c 76bd 333c a43d 9813 403e ca29 03be
00000390: c7e4 3d3e 26c1 c03e 83e1 da3d 5367 343e
000003a0: 4e5c f83d fdb3 8b3e 2e2a e63e 7b6e debc
000003b0: 6c78 6a3d e174 533e f56c ad3d 8d54 763e
000003c0: 88dc b53e 5680 ff3d 63a1 a63e 31d2 a13e
000003d0: a984 e83e 71bd ab3e 2a6a 0d3e e085 fd3d
000003e0: 94bc 82bd 5eb7 99bc b145 913e e9bd 743e
000003f0: 74b4 243d 91f0 3c3e c945 843e 2cdb 493e

arith.constant2 f4 [2]
0.13353142 0.15284446
00000000: 76bc 083e 4283 1c3e

sequential_1/dense_1_2/BiasAdd/ReadVariableOp f4 [32]
-0.06127711 0.20537223 0.20491017 0.21312675 -0.032805108 0.16863403 0.21209282 -0.031025168
0.22517845 -0.033039615 0.18009245 0.13576242 0.19964236 0.16981621 0.18878764 -0.062133998
0.18894207 0.21972664 -0.12403026 0.22392295 -0.020546181 0.2067028 -0.039711423 0.19038667
0.22413555 0.23611334 0.18517064 -0.038025204 0.18523704 -0.041714787 0.25224942 0.22041531
00000000: b5fd 7abd 194d 523e f9d3 513e e63d 5a3e
00000010: a65e 06bd 66ae 2c3e dc2e 593e 7e28 febc
00000020: 2e95 663e 8c54 07bd 286a 383e 4e05 0b3e
00000030: 0c6f 4c3e 4de4 2d3e 8c51 413e 3880 7ebd
00000040: 087a 413e 0500 613e 9403 febd 0f4c 653e
00000050: 7750 a8bc e6a9 533e 72a8 22bd b9f4 423e
00000060: ca83 653e b2c7 713e 5f9d 3d3e 51c0 1bbd
00000070: c7ae 3d3e 20dd 2abd d626 813e 8db4 613e

sequential_1/dense_1/BiasAdd/ReadVariableOp f4 [64]
0.2535523 0.27630842 0.24319808 0.3070547 0.27301607 0.2725345 0.3058277 0.23738755
0.28506857 0.28909403 0.15918477 0.29135424 0.2257229 0.30279186 0.2922855 0.26552194
0.31173554 0.28135794 0.13872421 0.15891768 0.16686498 0.30138433 0.29153723 0.22321299
0.28384376 0.18639822 0.3183168 0.21113603 0.20429975 0.17234589 0.20950334 0.25967342
0.28843695 0.33378035 0.24095774 0.20350435 0.23139717 0.3394056 0.08973853 0.1747296
0.08503709 0.21299437 0.2672835 0.27490893 0.22616145 0.25263157 0.39078858 0.24536715
0.25230718 0.19120881 0.21563295 0.30774736 0.19150916 0.24376917 0.3241842 0.34843647
0.29108298 0.27321842 0.20221563 0.35580662 0.3093195 0.27678692 0.26212883 0.30387846
00000000: 9bd1 813e 4c78 8d3e eb08 793e 4636 9d3e
00000010: c3c8 8b3e a489 8b3e 7395 9c3e b915 733e
00000020: 82f4 913e 2204 943e 5501 233e 622c 953e
00000030: e723 673e 8907 9b3e 72a6 953e 7ef2 873e
00000040: cd9b 9f3e 260e 903e b80d 0e3e 51bb 223e
00000050: a7de 2a3e 0c4f 9a3e 5e44 953e f291 643e
00000060: f853 913e 2ddf 3e3e 6bfa a23e 0b34 583e
00000070: f433 513e 717b 303e 0b88 563e eaf3 843e
00000080: 02ae 933e 42e5 aa3e a0bd 763e 7263 503e
00000090: 61f3 6c3e 92c6 ad3e d6c8 b73d 51ec 323e
000000a0: ed27 ae3d 321b 5a3e 62d9 883e ddc0 8c3e
000000b0: de96 673e ed58 813e 7115 c83e 8741 7b3e
000000c0: 682e 813e 3ecc 433e e2ce 5c3e 1091 9d3e
000000d0: fa1a 443e a09e 793e 79fb a53e 4466 b23e
000000e0: d408 953e 49e3 8b3e 9d11 4f3e 492c b63e
000000f0: 205f 9e3e 04b7 8d3e c035 863e f595 9b3e

sequential_1/dense_1/MatMul f4 [64, 4]
0.01874255 -0.28789413 0.19163257 -0.24256049 0.084745154 0.21965468 -0.04219281 -0.06786511
-0.16196547 -0.21029945 0.2663687 0.021065515 -0.16600901 -0.10317858 0.09342795 0.27096543
0.36825168 -0.1812765 -0.4364364 0.3422618 0.44398296 -0.37715948 0.2535535 0.29141328
-0.11574377 -0.2920399 0.17294161 0.21570773 0.03849785 -0.11371443 -0.4905077 -0.2748714
0.3516511 -0.32820627 0.014314623 -0.3633104 -0.051903207 -0.28382948 0.31916186 0.25099003
0.14757179 -0.18371011 -0.3582818 -0.029747333 -0.012428546 -0.20661102 0.33091238 0.21724504
-0.10987729 0.10647165 0.5726564 0.08538871 0.2314805 0.13715875 0.4984829 0.11819727
-0.03843721 0.045524854 -0.3538862 0.06868299 -0.060603928 -0.26175225 0.089052916 -0.15831812
0.18687986 -0.32909867 0.07921132 -0.032652255 0.24713108 0.073740855 -0.462318 -0.30139887
0.07285485 -0.110658735 -0.67005414 0.25333357 0.1674029 0.053584367 0.4958507 0.012071593
0.17863685 -0.23041697 0.0834599 -0.031611487 0.31665385 0.09622383 0.40291104 0.25773433
0.40227127 -0.30681005 -0.26141447 0.29705667 0.09081973 -0.15277682 0.30305958 0.26868615
0.22753933 -0.21719833 0.15638337 0.023797436 -0.0077094757 -0.14433824 -0.343833 0.15268856
-0.04875765 -0.030191302 -0.14291427 -0.21650954 0.23153797 -0.08335773 0.31144872 -0.14390783
0.08661435 0.03318072 0.34959346 0.12580816 0.11819191 -0.15040828 -0.5419722 0.08109584
0.28475288 -0.13481347 0.19038446 0.06376038 0.37151223 -0.32627633 0.41080883 -0.2814728
0.34474412 -0.27802974 0.023019472 0.3340591 0.22665264 -0.11440831 -0.2198153 -0.03078979
0.091610484 -0.12993833 0.4247515 -0.03624193 0.23061241 0.15332808 -0.023324918 -0.2656558
-0.003079781 0.0126194535 -0.49515122 0.16934188 -0.02593967 -0.04789598 -0.16894245 -0.3092441
0.1094074 -0.1092349 -0.31613085 0.04191611 0.073120765 -0.18270217 -0.58551675 0.21462114
0.12307134 0.031133052 0.41883543 -0.09690735 0.13054734 -0.10797377 0.51153237 -0.06876418
0.2926735 -0.24833776 -0.22367826 -0.2525063 0.30064127 -0.23804615 0.24387088 -0.35917252
-0.22030443 0.037423454 -0.55984515 -0.06435484 0.026646469 0.21292332 0.52235276 0.007060778
0.03793261 0.22115438 0.107199684 0.3465893 0.32369897 0.056706578 -0.52687776 0.23602897
-0.11578954 -0.048061863 0.3382827 0.20480287 -0.028619433 0.16588902 0.4991738 0.1832859
0.3110426 -0.21464984 0.010618972 -0.13380578 -0.015513305 0.10665245 -0.17176569 -0.20496762
0.045363884 -0.081960894 0.409989 -0.1726012 0.118734196 -0.12890653 0.39654225 0.19785096
0.31194225 -0.14386523 -0.28060412 -0.025292793 -0.10333098 -0.07500021 0.014310236 0.06465884
0.17243592 -0.3222979 0.39149275 0.19456057 -0.13157848 -0.075203784 0.15422107 -0.13040714
0.1641312 0.1752124 -0.52874887 0.008550915 0.2162419 0.19721422 0.33433744 0.21735843
0.29526243 0.103709206 0.28598604 -0.23044147 -0.06369862 -0.21197288 0.44028363 -0.30840755
-0.10710951 -0.29264298 -0.11656977 -0.29609483 0.16385762 -0.14419267 0.082237944 0.32851824
00000000: fa89 993c dc66 93be 543b 443e c761 78be
00000010: de8e ad3d 28ed 603e 5ed2 2cbd ddfc 8abd
00000020: 47da 25be bd58 57be 7a61 883e 9691 ac3c
00000030: 44fe 29be 4b4f d3bd 2757 bf3d fbbb 8a3e
00000040: 7c8b bc3e 8ca0 39be 9874 dfbe f03c af3e
00000050: bc51 e33e 0c1b c1be c4d1 813e 1f34 953e
00000060: 120b edbd 4186 95be 9b17 313e 7de2 5c3e
00000070: ecaf 1d3d 1ce3 e8bd d323 fbbe f2bb 8cbe
00000080: 9d0b b43e a70a a8be e187 6a3c d203 babe
00000090: 7598 54bd 1952 91be 2f69 a33e c481 803e
000000a0: 0f1d 173e 811e 3cbe b670 b7be aeb0 f3bc
000000b0: 1aa1 4bbc d791 53be 596d a93e 7c75 5e3e
000000c0: 5807 e1bd cf0d da3d 9c99 123f 47e0 ae3d
000000d0: 3909 6d3e 5873 0c3e 2739 ff3e 6911 f23d
000000e0: 5670 1dbd 4578 3a3d 9230 b5be aba9 8c3d
000000f0: d33b 78bd 6404 86be 6061 b63d 251e 22be
00000100: 6f5d 3f3e 9f7f a8be 8b39 a23d 5fbe 05bd
00000110: ee0f 7d3e 7205 973d f2b4 ecbe f450 9abe
00000120: ec34 953d 0ca1 e2bd ab88 2bbf f0b4 813e
00000130: aa6b 2b3e 487b 5b3d 25e0 fd3e eec7 453c
00000140: 94ec 363e 6df2 6bbe 06ed aa3d 0c7b 01bd
00000150: 7420 a23e 0011 c53d 5b4a ce3e c1f5 833e
00000160: 80f6 cd3e 3516 9dbe 1ed8 85be d017 983e
00000170: b2ff b93d 8771 1cbe a02a 9b3e 3b91 893e
00000180: 1200 693e 3d69 5ebe f622 203e d7f2 c23c
00000190: c59f fcbb 67cd 13be e10a b0be 645a 1c3e
000001a0: 1ab6 47bd c053 f7bc 1e58 12be adb4 5dbe
000001b0: 4a18 6d3e 75b7 aabd 3576 9f3e 935c 13be
000001c0: dd62 b13d 82e8 073d eafd b23e dbd3 003e
000001d0: 9a0e f23d a104 1abe b1be 0abf 9315 a63d
000001e0: 21cb 913e 8b0c 0abe 25f4 423e cd94 823d
000001f0: da36 be3e b10d a7be 8955 d23e 341d 90be
00000200: 4d82 b03e ea59 8ebe 5593 bc3c cb09 ab3e
00000210: a117 683e e74e eabd 4317 61be df3a fcbc
00000220: 479e bb3d 8e0e 05be 0779 d93e 6b72 14bd
00000230: a925 6c3e 0902 1d3e e613 bfbc 0904 88be
00000240: 27d6 49bb d3c1 4e3c 7684 fdbe f567 2d3e
00000250: 6e7f d4bc 932e 44bd 40ff 2cbe 3e55 9ebe
00000260: fd10 e03d 8cb6 dfbd e7db a1be 3ab0 2b3d
00000270: 57c0 953d 4716 3bbe 6de4 15bf a5c5 5b3e
00000280: d40c fc3d be0a ff3c 9971 d63e 5c77 c6bd
00000290: 34ae 053e 5a21 ddbd c9f3 023f 3cd4 8cbd
000002a0: 4dd9 953e 414c 7ebe ea0b 65be 8148 81be
000002b0: a7ed 993e 5fc2 73be 4ab9 793e 76e5 b7be
000002c0: 7c97 61be 5649 193d 0352 0fbf 78cc 83bd
000002d0: b249 da3c 9208 5a3e e9b8 053f 195e e73b
000002e0: 395f 1b3d 4b76 623e 828b db3d 2774 b13e
000002f0: dfbb a53e 2845 683d 76e1 06bf 94b1 713e
00000300: 1123 edbd 84dc 44bd 6433 ad3e d8b7 513e
00000310: 4d73 eabc d0de 293e b593 ff3e 4daf 3b3e
00000320: fa40 9f3e 2bcd 5bbe 32fb 2d3c 6204 09be
00000330: 842b 7ebc 9a6c da3d 58e3 2fbe 08e3 51be
00000340: 7bcf 393d 1ddb a7bd 14ea d13e 5ebe 30be
00000350: ea2a f33d 1300 04be 9607 cb3e 7199 4a3e
00000360: e5b6 9f3e 6851 13be 58ab 8fbe d532 cfbc
00000370: 319f d3bd b699 99bd 7b75 6a3c db6b 843d
00000380: 0b93 303e 3b04 a5be bd71 c83e e33a 473e
00000390: 82bc 06be 7104 9abd 21ec 1d3e 7389 05be
000003a0: 0212 283e e16a 333e 165c 07bf 2319 0c3c
000003b0: 846e 5d3e 86f2 493e 472e ab3e 3593 5e3e
000003c0: a32c 973e 7e65 d43d c36c 923e d9f8 6bbe
000003d0: 6c74 82bd 6b0f 59be db6c e13e 98e7 9dbe
000003e0: 3b5c dbbd 4dd5 95be 22bc eebd be99 97be
000003f0: 4bca 273e 3ea7 13be 5e6c a83d 8b33 a83e
