assets/ai_models/exercise_plan_model.tflite (tflite, 1868 bytes, 3 tensors)

arith.constant f4 [1, 10]
000000 13 58 c0 bd 43 87 ae be c0 28 1d 3f f5 e7 fe bd
       -0.09391799 -0.34087572 0.61390305 -0.12446586
000010 e6 4f 0a 3f 51 64 fd be 00 58 ba 3e 71 15 ed 3e
       0.54028165 -0.49490598 0.36395264 0.4630542
000020 b6 d2 f5 3e 03 58 84 be
       0.48012322 -0.25848398

sequential_1/dense_1/BiasAdd/ReadVariableOp f4 [10]
000000 9a 33 c2 bd e6 13 cf bd 25 c3 35 3e 37 75 d1 bd
       -0.094824985 -0.10111217 0.17750223 -0.10227435
000010 f7 c1 06 3e c6 10 bf bd 41 8a 16 3e 38 b0 26 3e
       0.13159929 -0.09329371 0.14701177 0.1627816
000020 1e 95 47 3d 1b a8 d2 bd
       0.048726194 -0.1028597

sequential_1/dense_1/MatMul f4 [10, 7]
000000 5e 2c 5e be 27 5d bf be 56 51 0d 3e f1 dc 49 3d
       -0.21696612 -0.37375757 0.13800558 0.04928297
000010 74 ba cc 3c ba 41 b1 be e0 4e b6 3e 2c a7 7b 3d
       0.024991252 -0.34620458 0.35607052 0.061438724
000020 10 ee 28 3e b0 8e 06 bf 17 4d c2 bc 75 f3 07 3b
       0.16497064 -0.52561474 -0.0237184 0.0020744477
000030 0b ac bb 3e 88 8b 4f be 12 98 d3 39 c8 8d bf be
       0.36654696 -0.2026807 0.00040358357 -0.37412858
000040 a6 98 f9 3d 17 d7 2c 3d c3 0f 02 bf 22 f6 ce 3e
       0.121873185 0.042197313 -0.508053 0.4042216
000050 18 a2 9e 3e e6 cc 92 be 9d 93 db 3c f7 2d e4 be
       0.30983043 -0.2867195 0.026803786 -0.44566318
000060 1f 0e d3 be 05 92 b5 3e 05 ed 0c bf 80 5c da 3d
       -0.4122171 0.35462967 -0.55049163 0.10662174
000070 8d 19 0d bf 6b 24 c3 bd 90 bd e5 be ff 88 29 bf
       -0.5511711 -0.095284306 -0.44871187 -0.66224664
000080 73 c1 65 bd 46 db 8f be e0 de 8c be 17 2e f4 ba
       -0.05609269 -0.2809698 -0.2751379 -0.0018629459
000090 46 78 64 3e cc 66 e3 3e 4d f4 94 3e 59 f2 c6 be
       0.22311506 0.44414365 0.29092637 -0.38856772
0000a0 09 bf 31 bd e7 f7 5f be e5 3e eb 3e c0 fd 01 3f
       -0.043395076 -0.21871911 0.45946422 0.50777817
0000b0 76 a7 5c be 3d 4f ed be c2 66 02 3f 5d 19 04 bf
       -0.21548256 -0.46349517 0.50938046 -0.516012
0000c0 ed 6a c3 3d ab f2 21 3f 7e 33 d2 3e cd 9b 12 bd
       0.09541879 0.63260907 0.4105491 -0.035793114
0000d0 d3 80 f4 3e 77 f2 28 be 89 7f 8b 3d 63 e3 85 3e
       0.47754535 -0.16498743 0.06811435 0.26150045
0000e0 f1 4e 04 bf 91 49 00 bf 1d 14 3b 3c a2 b5 fd 3e
       -0.51682955 -0.50112253 0.01141837 0.49552637
0000f0 c6 16 11 bd b4 15 d3 bd 68 ce 83 be 5f 60 a6 be
       -0.03542211 -0.10306874 -0.25743413 -0.324954
000100 8e fb e8 3d 21 76 0b bf 4d dc 56 3e 8a 53 24 3e
       0.11376105 -0.54477125 0.20982476 0.16047493
000110 f8 95 fd 3e 6a 33 4e be
       0.4952848 -0.201368
