assets/ai_models/exercise_plan.tflite (tflite, 8524 bytes, 6 tensors)

arith.constant f2 [64, 5]
000000 3f 27 d3 b1 31 9c fd bb 40 96 1a a7 87 b6 b0 35
       0.0283 -0.182 -0.004093 -0.9985 -0.001526 -0.02774 -0.408 0.3555
000010 c4 b8 16 1b 2a aa bf 24 a0 33 1a b3 e4 17 e1 b2
       -0.5957 0.00346 -0.04816 0.01854 0.2383 -0.2219 0.001926 -0.215
000020 8f b4 35 ad 6d 32 b6 30 95 2f 98 b7 10 38 56 2d
       -0.285 -0.08136 0.2008 0.1472 0.11847 -0.4746 0.508 0.0834
000030 36 95 91 28 15 b8 68 33 3b 35 06 90 5c 26 79 38
       -0.001272 0.03568 -0.5103 0.2314 0.327 -0.000491 0.02484 0.559
000040 e4 af a0 3b 06 96 09 93 46 b8 0a 38 d1 35 1e 20
       -0.1233 0.953 -0.001471 -0.000859 -0.534 0.505 0.3635 0.00804
000050 db b3 b8 29 8b ad b4 b0 1b a2 64 ab f7 b5 dc 2e
       -0.2455 0.04468 -0.0866 -0.147 -0.011925 -0.05774 -0.3728 0.1072
000060 c1 b4 2f a3 85 b4 a6 24 7b b3 4c af a4 34 0e b4
       -0.297 -0.01403 -0.2825 0.01816 -0.2338 -0.114 0.29 -0.2534
000070 fd ad 39 32 d3 ac 81 a7 11 ac 8f a9 b0 b0 08 ae
       -0.09357 0.1945 -0.0754 -0.02931 -0.06354 -0.04343 -0.1465 -0.09424
000080 4d ad cb 22 be ae 95 ab 76 2f e6 ab d6 35 5e 2d
       -0.0828 0.01327 -0.10535 -0.05923 0.1166 -0.0617 0.3647 0.08386
000090 43 a8 8c 34 a0 ae 01 b0 21 36 ba 1e 04 b4 85 34
       -0.0333 0.2842 -0.1035 -0.1251 0.383 0.00657 -0.251 0.2825
0000a0 1d 35 90 2c 8f ae 46 ad b4 2a bb ab f8 b2 6f 30
       0.3196 0.0713 -0.1025 -0.0824 0.05237 -0.0604 -0.2178 0.1385
0000b0 81 ba 7a a5 74 b1 a6 b0 56 ac 8e af be 2c 98 ae
       -0.813 -0.0214 -0.1704 -0.1453 -0.06775 -0.11804 0.0741 -0.103
0000c0 48 31 f4 33 a6 30 84 af 98 b2 1b a9 28 b2 cb aa
       0.165 0.2485 0.1453 -0.11743 -0.206 -0.0399 -0.1924 -0.05307
0000d0 3c 2f 17 b3 24 24 13 b1 74 24 3a b4 96 99 69 32
       0.11304 -0.2216 0.01617 -0.1586 0.0174 -0.2642 -0.002728 0.2003
0000e0 13 36 48 38 cc 1c a2 aa b2 33 cc ac 93 30 b7 ae
       0.3796 0.535 0.004684 -0.05182 0.2405 -0.07495 0.143 -0.1049
0000f0 6b a8 da 32 77 35 50 b5 03 1d 55 b3 28 2a 48 b3
       -0.03452 0.2141 0.3416 -0.332 0.004894 -0.2291 0.0481 -0.2275
000100 c7 b2 a5 a9 89 34 62 b7 25 36 a3 32 27 31 b2 b1
       -0.2118 -0.0441 0.2834 -0.4614 0.384 0.2074 0.161 -0.178
000110 09 30 f7 b1 8d b3 5f 33 6c 95 38 35 b6 ae 88 2f
       0.1261 -0.1864 -0.236 0.2303 -0.001324 0.3262 -0.10486 0.1177
000120 bf 95 7c b3 e3 b0 5b b3 03 b0 ee a3 15 27 f4 b2
       -0.001403 -0.2339 -0.1527 -0.2299 -0.1254 -0.01549 0.02766 -0.2173
000130 b3 2c 74 b4 9f b4 d5 33 28 b3 18 ac fc 31 f8 b0
       0.0734 -0.2783 -0.2888 0.2448 -0.2236 -0.06396 0.187 -0.1553
000140 b8 2f 3a b3 79 37 11 39 3b a6 4d b1 5a b4 02 33
       0.1206 -0.2258 0.467 0.6333 -0.02434 -0.1656 -0.272 0.219
000150 d0 ae e2 29 cb 1b 61 b1 6f 35 eb 36 f6 a2 45 b4
       -0.10645 0.04596 0.003805 -0.1681 0.3396 0.4324 -0.013596 -0.2668
000160 32 2b da 9f 87 ad 37 ad 95 a9 55 b8 41 34 a0 38
       0.0562 -0.007668 -0.08636 -0.0815 -0.0436 -0.5415 0.2659 0.578
000170 6d 22 56 2a 90 b4 b3 b3 24 ab 2e aa b7 b1 25 ac
       0.01255 0.0495 -0.2852 -0.2406 -0.0558 -0.04828 -0.1786 -0.06476
000180 1b 33 48 2f 40 b4 8e a3 8a b4 6b 38 6b b5 7b 9c
       0.222 0.1138 -0.2656 -0.014755 -0.2837 0.5522 -0.3386 -0.004375
000190 cd ad 97 31 00 ae f8 ac b6 b3 d5 af 94 34 d0 ab
       -0.09064 0.1747 -0.09375 -0.07764 -0.241 -0.1224 0.2861 -0.06104
0001a0 bc 30 bf 2d a1 aa 7b 2c 3e 30 0b bc 26 a4 9f 26
       0.148 0.0898 -0.0518 0.07 0.1326 -1.011 -0.0162 0.02586
0001b0 04 27 41 b5 fb 25 5a 29 46 b4 ef af 59 32 82 2f
       0.0274 -0.3284 0.02336 0.0418 -0.267 -0.12396 0.1984 0.1173
0001c0 0b 2b 7f 26 04 24 a1 1f c7 ad ac b1 8a b0 b9 31
       0.05502 0.02538 0.01569 0.00745 -0.0903 -0.1772 -0.1418 0.1788
0001d0 71 b4 19 b4 a9 33 83 a4 b0 b1 75 35 9f b1 cc 1e
       -0.2776 -0.256 0.2394 -0.01762 -0.1777 0.341 -0.1757 0.006638
0001e0 93 b0 a4 ab 43 a2 77 34 6a 2c ab ac 25 2f 06 b0
       -0.143 -0.0597 -0.01223 0.279 0.069 -0.07294 0.11163 -0.1257
0001f0 75 b2 2c b3 67 ae 99 b4 ca b3 bc 33 0c b1 58 a7
       -0.2018 -0.2241 -0.10004 -0.2874 -0.2434 0.2417 -0.1577 -0.02869

arith.constant1 f2 [64]
000000 4a 28 fb 06 de 25 00 00 01 8c 15 99 7d 33 d9 90
       0.0335 0.0001065 0.02292 0.0 -0.0002444 -0.002481 0.234 -0.0005918
000010 00 00 3a 1c 6c 21 00 00 00 00 00 00 8a a8 f8 2e
       0.0 0.004128 0.01059 0.0 0.0 0.0 -0.03546 0.1089
000020 cc 8c 7a 27 00 00 00 00 00 00 00 00 b2 26 00 00
       -0.0002928 0.0292 0.0 0.0 0.0 0.0 0.02615 0.0
000030 02 1b 00 00 f0 09 62 27 12 2c 00 00 bf 9d 40 ab
       0.003422 0.0 0.0001812 0.02884 0.0636 0.0 -0.00561 -0.05664
000040 44 9d 00 00 38 0f 00 00 45 9c 00 00 00 00 ec 91
       -0.005142 0.0 0.0004406 0.0 -0.00417 0.0 0.0 -0.000723
000050 00 00 00 00 10 32 20 24 00 00 8d a8 2d 28 92 94
       0.0 0.0 0.1895 0.01611 0.0 -0.03555 0.03262 -0.001116
000060 00 00 00 00 00 00 cb 15 74 14 0f 8b 69 8c 00 00
       0.0 0.0 0.0 0.001414 0.001087 -0.0002154 -0.0002692 0.0
000070 00 00 8b 0f ce 16 8f 8a 00 00 c7 9d 00 00 fa 04
       0.0 0.0004604 0.001661 -0.0002002 0.0 -0.005642 0.0 7.594e-05

arith.constant2 f2 [32]
000000 10 c2 97 c9 20 c0 7e 49 1f 3e d9 c8 84 ca e2 a2
       -3.031 -11.18 -2.062 10.984 1.53 -9.695 -13.03 -0.01344
000010 44 c8 c3 bb 64 cb 82 3d e9 c2 ed 49 29 48 13 4a
       -8.53 -0.97 -14.78 1.377 -3.455 11.85 8.32 12.15
000020 17 c6 5f c4 72 c4 88 c9 a7 c7 ee 49 fd 49 2f 48
       -6.09 -4.37 -4.445 -11.06 -7.652 11.86 11.98 8.37
000030 1d 31 e3 48 d5 c8 27 49 78 46 ae c7 94 47 86 c9
       0.1598 9.77 -9.664 10.305 6.47 -7.68 7.58 -11.05

arith.constant3 f2 [32, 64]
000000 79 33 85 2b 61 31 f8 3e ab 26 ab 90 d7 b9 88 2d
       0.2335 0.05875 0.1681 1.742 0.02605 -0.00057 -0.73 0.0864
000010 f7 b8 e8 46 00 3b 03 40 89 48 d5 c6 d6 a4 0e a8
       -0.6206 6.906 0.875 2.006 9.07 -6.832 -0.01889 -0.03168
000020 60 a9 e5 48 eb bd 22 3f fb 37 cb b2 1e 21 f8 3a
       -0.042 9.79 -1.4795 1.783 0.4988 -0.2123 0.009995 0.871
000030 b7 a8 b3 44 7e a4 ab ac dc bf 2e 3e 31 38 47 26
       -0.03683 4.7 -0.01755 -0.07294 -1.965 1.545 0.524 0.02452
000040 13 29 b3 bc 0e 2e bb c1 82 ad 92 c3 aa c2 f7 2b
       0.03964 -1.175 0.0946 -2.865 -0.08606 -3.785 -3.332 0.06223
000050 a4 40 77 c4 cd 42 07 bc 62 45 6b 2b af b0 64 21
       2.32 -4.465 3.4 -1.007 5.383 0.05795 -0.1464 0.01053
000060 e6 c0 5d c9 a1 47 61 2f b6 a9 9a 28 1a 31 4b c5
       -2.45 -10.73 7.63 0.1153 -0.04462 0.03595 0.1594 -5.293
000070 50 43 49 22 f1 29 fb 2b 89 c5 19 ad 5c 44 dc 28
       3.656 0.012276 0.04642 0.06235 -5.535 -0.07965 4.36 0.03796
000080 f8 1d 9f 2f d8 2c 12 c2 8d 1e 0c 2b 73 b7 51 2c
       0.00583 0.1191 0.0757 -3.035 0.006397 0.05505 -0.4656 0.06744
000090 a0 c8 cc c2 b1 2f f6 4a 20 44 3e 48 57 22 62 a5
       -9.25 -3.398 0.1202 13.92 4.125 8.484 0.01238 -0.02103
0000a0 3d 29 2b c5 10 48 ae c8 4d 41 01 44 c5 2d 71 c0
       0.04092 -5.168 8.125 -9.36 2.65 4.004 0.09015 -2.22
0000b0 b2 33 4f c4 8e 25 79 30 07 c2 07 48 2b c3 9e a0
       0.2405 -4.31 0.0217 0.1398 -3.014 8.055 -3.584 -0.00902
0000c0 b0 8f 0a c7 07 2c 03 c1 7d 2d 93 be e2 3f 3c 2b
       -0.0004692 -7.04 0.0629 -2.506 0.08575 -1.644 1.971 0.05652
0000d0 fb c6 83 3a 49 34 a6 c6 9e c5 15 c0 4b 34 2d 2a
       -6.98 0.814 0.2678 -6.65 -5.617 -2.041 0.2683 0.04825
0000e0 ef 3c 1a 44 d9 c2 59 22 5a a5 37 2c 46 28 34 2f
       1.233 4.1 -3.424 0.0124 -0.0209 0.06586 0.0334 0.11255
0000f0 21 c9 f3 28 4d 2a c2 2c 73 46 79 2f 80 40 9a 20
       -10.26 0.03867 0.04922 0.07434 6.45 0.11676 2.25 0.00899
000100 b8 38 31 2a f4 aa 41 c4 24 24 5b 29 9d b9 c0 29
       0.59 0.04837 -0.05432 -4.254 0.01617 0.04184 -0.7017 0.04492
000110 db c6 42 44 d1 3a 53 42 59 bd 07 46 0f 24 c9 a8
       -6.855 4.258 0.852 3.162 -1.337 6.027 0.01585 -0.03738
000120 e3 27 ea 48 88 b8 59 43 b8 c5 ea 46 65 ad 97 bc
       0.0308 9.83 -0.5664 3.674 -5.72 6.914 -0.0843 -1.147
000130 c5 ad 40 3d b7 24 aa 38 b5 b4 ef 45 59 39 68 23
       -0.09015 1.3125 0.01842 0.583 -0.2942 5.934 0.6685 0.014465
000140 5d a4 c4 c5 f3 ac c0 3c 43 ae 40 41 39 41 20 2a
       -0.01704 -5.766 -0.07733 1.1875 -0.09784 2.625 2.611 0.04785
000150 83 bc e9 c4 e0 42 ee c1 14 c1 a3 be 95 2c c5 27
       -1.128 -4.91 3.438 -2.965 -2.54 -1.659 0.0716 0.03035
000160 a4 44 46 46 6d 3f 8d aa 98 2e a8 29 07 b3 b1 39
       4.64 6.273 1.856 -0.05118 0.103 0.0442 -0.2196 0.7114
000170 bc c4 e1 25 d3 28 66 20 a8 3e 2b 99 4d 43 2d 25
       -4.734 0.02296 0.0377 0.00859 1.664 -0.002523 3.65 0.02022
000180 60 ab a3 b0 ce ae 5b cc f5 a6 81 ad c2 a4 35 a9
       -0.05762 -0.1449 -0.1063 -17.42 -0.02718 -0.086 -0.01859 -0.04068
000190 fb cb da c9 73 b8 96 49 04 c1 69 48 be a3 63 2b
       -15.96 -11.7 -0.556 11.17 -2.508 8.82 -0.01512 0.0577
0001a0 a9 a5 c0 c7 b6 48 4b c9 f2 c8 41 4b 85 ab 10 4a
       -0.02211 -7.75 9.42 -10.586 -9.89 14.51 -0.05875 12.125
0001b0 a3 b0 ef ca 07 a5 b4 b0 76 44 99 40 01 c5 57 97
       -0.1449 -13.87 -0.01964 -0.147 4.46 2.299 -5.004 -0.001792
0001c0 2d 1d bf c8 df ad 3d c7 4b b2 a1 c9 c1 4a ae 9c
       0.005054 -9.49 -0.09174 -7.24 -0.1967 -11.26 13.51 -0.00457
0001d0 03 ca d5 ca 14 b7 cd bd 15 cb 9a 44 d4 a1 70 ad
       -12.02 -13.664 -0.4424 -1.45 -14.164 4.6 -0.01138 -0.08496
0001e0 20 47 a4 49 ea c5 ea ae 56 a9 db 99 fa aa 6e 47
       7.125 11.28 -5.914 -0.10803 -0.0417 -0.00286 -0.0545 7.43
0001f0 fa c9 d4 ad c5 a4 1c af 93 49 12 b0 1b c6 a8 ad
       -11.95 -0.09106 -0.01863 -0.1111 11.15 -0.1272 -6.105 -0.0884

arith.constant4 f2 [7]
000000 48 c5 45 c2 6e bc 23 44 c4 44 f7 b6 7c b3
       -5.28 -3.135 -1.107 4.137 4.766 -0.4353 -0.2339

arith.constant5 f2 [7, 32]
000000 a5 30 e3 32 cf 36 d6 34 b8 b4 18 37 ee 31 b9 b5
       0.1451 0.2152 0.4255 0.3022 -0.295 0.4434 0.1853 -0.3577
000010 cc 31 ac 32 62 26 67 b0 54 b4 92 33 3c 33 82 33
       0.1812 0.2085 0.02493 -0.1376 -0.2705 0.2366 0.2261 0.2346
000020 85 ac c7 26 96 35 5e 2b 45 2a b8 30 22 33 ad 30
       -0.0706 0.02647 0.349 0.05756 0.04898 0.1475 0.2229 0.1461
000030 e2 34 36 3a 37 a9 77 2c aa 39 5d 2f 23 35 27 9b
       0.3052 0.7764 -0.04074 0.06976 0.708 0.11505 0.321 -0.003492
000040 8c 22 f9 a5 9a 30 b0 31 34 b4 1f 35 e4 31 a8 b5
       0.01279 -0.02333 0.1438 0.1777 -0.2627 0.32 0.1841 -0.3535
000050 f8 2a 0e 30 ba 2c 9e b0 0f b5 3d 33 2f 24 23 33
       0.05444 0.1267 0.07385 -0.1443 -0.3162 0.2262 0.01634 0.223
000060 38 28 eb ae c3 ae 8f 2c ee a8 60 2f ad 32 a6 2c
       0.03296 -0.1081 -0.10565 0.0712 -0.0385 0.11523 0.2086 0.07263
000070 7f 28 4a 39 91 b0 72 29 14 38 e4 24 a7 34 43 2d
       0.03513 0.661 -0.1427 0.04254 0.51 0.0191 0.2908 0.0822
000080 b0 1a c1 2c 5e ad 06 2b 3b b1 c8 32 85 28 a9 b1
       0.003265 0.0743 -0.08386 0.05487 -0.1635 0.2119 0.0353 -0.1769
000090 b1 a8 76 ab a8 17 8a b0 87 b4 fa 32 2b a9 60 32
       -0.03665 -0.0583 0.001869 -0.1418 -0.283 0.218 -0.04037 0.1992
0000a0 ac b0 8a b0 a8 2d 0e ac 3f b0 85 2b 62 32 5e 2f
       -0.146 -0.1418 0.0884 -0.06335 -0.1327 0.05875 0.1995 0.1151
0000b0 4f af 1a 38 1c b2 ab 2b ec 34 03 b0 5f 33 0d 28
       -0.1142 0.5127 -0.1909 0.0599 0.3076 -0.1254 0.2303 0.03165
0000c0 ab b1 30 ad cd b5 5b b7 e1 1c 57 b5 90 b0 ec 32
       -0.1771 -0.08105 -0.3625 -0.4597 0.004765 -0.3337 -0.1426 0.2163
0000d0 a4 b0 6a ab 35 b3 f7 31 eb 9a 81 2a ef b1 6c 2c
       -0.145 -0.05792 -0.2252 0.1864 -0.003378 0.0508 -0.1854 0.0691
0000e0 44 b8 d3 b0 45 32 43 af 1d b4 e3 a7 56 2d e7 9a
       -0.533 -0.1508 0.1959 -0.11346 -0.257 -0.0308 0.0834 -0.00337
0000f0 09 ba 61 a1 f8 b4 5f 29 78 b3 43 b5 ee 2c 0d b1
       -0.7544 -0.010506 -0.3105 0.04196 -0.2334 -0.3289 0.077 -0.1578
000100 43 a5 4e b0 f3 36 7a b5 ef 25 f5 b8 6d b0 e3 30
       -0.02055 -0.1345 0.4343 -0.3423 0.02318 -0.6196 -0.1383 0.1527
000110 d8 2f 1b a9 0c b4 c2 33 3e a8 f1 b4 dc b0 c2 b3
       0.12256 -0.0399 -0.253 0.2424 -0.03314 -0.3088 -0.1519 -0.2424
000120 b4 b4 c6 30 72 35 9f b0 64 2e e8 b2 a8 b5 c9 b2
       -0.294 0.1492 0.3403 -0.1444 0.09985 -0.2158 -0.3535 -0.212
000130 11 b9 58 a7 0d 2c 1d b5 f8 b6 8f ae 66 b6 a9 27
       -0.6333 -0.02869 0.0633 -0.3196 -0.4355 -0.1025 -0.4 0.02992
000140 4a 34 79 36 8e 37 48 b5 0a 96 e8 a9 4e 37 34 2e
       0.268 0.4045 0.4722 -0.33 -0.001474 -0.04614 0.4565 0.0969
000150 14 32 19 9d d6 27 25 32 63 99 3c b1 ff b2 86 b0
       0.19 -0.00498 0.03061 0.192 -0.00263 -0.1636 -0.2186 -0.1414
000160 96 32 72 32 e4 a4 4e 2c db 32 31 ad f3 b1 7b b0
       0.2058 0.2014 -0.0191 0.06726 0.2142 -0.0811 -0.1859 -0.14
000170 48 b5 39 ab 12 34 27 b3 d8 b5 b5 2b ae b1 9c 2f
       -0.33 -0.05643 0.2544 -0.2235 -0.3652 0.0602 -0.1775 0.1189
000180 92 a7 6d 36 79 31 fa b5 cb ad dc 26 4c 36 01 25
       -0.02957 0.4016 0.171 -0.3735 -0.0905 0.0268 0.3936 0.01955
000190 1b 34 1e 35 33 23 2a b1 62 33 f1 b2 89 b8 da b0
       0.2566 0.3198 0.01406 -0.1614 0.2307 -0.2169 -0.567 -0.1516
0001a0 5c 28 ab 2e c3 33 51 30 8b 30 34 af 7e b2 30 ac
       0.03406 0.1042 0.2426 0.1349 0.142 -0.11255 -0.2029 -0.0654
0001b0 a8 b6 2e b3 18 34 b3 af 77 b4 a0 30 80 ab 95 31
       -0.416 -0.2244 0.2559 -0.1203 -0.279 0.1445 -0.0586 0.1744
