assets/ai_models/fitness_model_v1_session_duration.tflite (tflite, 14416 bytes, 3 tensors)

arith.constant f4 [128, 7]
-0.18083213 -0.11189254 -0.015931219 0.14149742 0.20556252 -0.14795959 0.13574345 -0.20119591
0.08909388 0.00545229 0.01877375 0.16017608 -0.15671144 0.16351004 0.0729451 -0.06786683
0.114241675 0.16661255 -0.07654384 -0.19710203 0.05597435 -0.20213653 -0.094311625 -0.08225785
-0.1990356 0.064864025 0.0869223 -0.10255361 -0.15506122 0.06457324 -0.12335839 -0.074576646
0.050945982 0.07995193 -0.15365349 -0.20810406 -0.16667634 -0.13347483 0.08759834 0.0809914
-0.18923707 0.17075013 -0.17772508 0.051253036 -0.008183777 0.101571515 -0.010931805 -0.16752449
0.1281542 0.08814685 -0.18922485 -0.20600915 -0.12030914 0.13378821 -0.03743115 -0.13011089
-0.04289177 -0.016873807 -0.19335929 -0.15647817 0.18540643 -0.10438062 -0.033205286 0.20045136
0.14496438 -0.19120657 0.1240582 0.19307138 -0.06763683 0.062379375 -0.065915614 -0.056987897
-0.13736288 -0.0011101067 -0.11142243 0.18019639 -0.14621678 -0.09344936 0.18954845 -0.048048407
0.085108355 0.2055616 0.08957626 -0.1144166 -0.041717723 -0.08479728 -0.095558405 0.18187533
0.05198948 -0.050896913 0.02100347 0.09660594 0.075417 0.081572816 -0.14875712 0.04274188
-0.20777337 0.06040685 -0.11382621 -0.03671676 -0.18877424 0.074107274 -0.011841267 -0.10786948
0.17161177 0.13871069 0.035582423 -0.07249786 -0.12111968 0.023458213 -0.044579104 -0.19849783
0.09997003 0.03201601 -0.04772708 0.16097726 0.10017361 -0.08036183 0.081492946 0.17391382
-0.0011565089 -0.07242906 0.027139783 0.023450077 -0.06075205 -0.038039222 0.13330896 0.07496522
-0.13348258 -0.07197066 0.09959115 -0.10866062 0.05279617 -0.065321505 -0.19066158 0.0798011
0.111315414 0.07138072 -0.00090800226 -0.2014524 0.061211005 -0.15200245 0.104651794 0.15649723
0.15064545 -0.040987954 -0.13632545 0.023664147 0.20095302 -0.036888808 0.02899459 0.057935104
0.07321869 0.091783956 -0.11501589 -0.0330182 0.14342164 -0.1500035 0.1368149 0.06599347
-0.07657108 -0.05447866 0.18305902 0.12190242 -0.079921216 -0.15218325 -0.09835217 -0.09733274
-0.07440545 0.0011718869 -0.12987198 0.05648969 -0.095575444 -0.08011991 -0.19330275 0.12118156
0.0565608 -0.0075707287 -0.07763606 0.12828042 -0.10111599 -0.052551374 -0.04369493 -0.14909583
-0.05408697 -0.20571868 -0.10535462 0.041791722 -0.01603894 0.057564422 -0.16479385 -0.06022182
0.08144127 0.105096534 0.082041755 -0.06157571 0.06351732 -0.119300656 0.13215207 -0.021633625
-0.16842118 -0.10991353 0.06920688 -0.17213365 0.16169016 -0.11647527 0.11546992 0.18841033
0.050461486 0.027881265 -0.037662506 0.12974577 -0.038517684 -0.07994187 -0.0082823485 -0.14667638
-0.12680477 0.015047759 0.19237076 -0.037306488 -0.006725043 0.11703931 -0.12031909 -0.0043598115
0.19093572 -0.034861743 -0.16133635 0.019173086 0.05015163 0.038775787 -0.078098476 -0.18424681
0.08845593 0.15751712 0.065263614 -0.15582229 0.052208826 0.038279384 -0.07626423 -0.08216943
0.083911404 -0.015279964 0.14542599 0.1898353 -0.0031303316 -0.15792736 0.17993228 0.08761905
0.06712635 0.1677217 0.033693433 0.031492814 0.13749512 0.025230244 0.15635644 0.053196654
00000000: 0f2c 39be ea27 e5bd 3082 82bc b3e4 103e
00000010: fb7e 523e b882 17be 5500 0b3e 4d06 4ebe
00000020: da76 b63d 20a9 b23b 68cb 993c 3305 243e
00000030: f778 20be 2d6f 273e 3e64 953d c4fd 8abd
00000040: 8af7 e93d 7b9c 2a3e 04c3 9cbd 1dd5 49be
00000050: 5c45 653d e1fc 4ebe 7426 c1bd ce76 a8bd
00000060: fdcf 4bbe 6ed7 843d 5204 b23d a107 d2bd
00000070: 5ec8 1ebe fa3e 843d 53a3 fcbd a4bb 98bd
00000080: bcac 503d d6bd a33d 5757 1dbe 3b19 55be
00000090: 34ad 2abe a0ad 08be c266 b33d d2de a53d
000000a0: 5dc7 41be 1fd9 2e3e 90fd 35be b4ee 513d
000000b0: 4015 06bc ba04 d03d 501b 33bc 8a8b 2bbe
000000c0: db3a 033e 5686 b43d 29c4 41be 10f4 52be
000000d0: a364 f6bd c7ff 083e 6851 19bd ca3b 05be
000000e0: 48af 2fbd f03a 8abc faff 45be d03b 20be
000000f0: 2fdb 3d3e 82c5 d5bd 4402 08bd 1f43 4d3e
00000100: 8b71 143e a8cb 43be 3a12 fe3d 81b4 453e
00000110: 2e85 8abd 8481 7f3d c4fe 86bd 246c 69bd
00000120: dba8 0cbe 0081 91ba 7131 e4bd 6785 383e
00000130: dab9 15be 6162 bfbd fd18 423e 68ce 44bd
00000140: 4a4d ae3d bd7e 523e c273 b73d 4053 eabd
00000150: 34e0 2abd 32aa adbd 20b4 c3bd 873d 3a3e
00000160: ecf2 543d 4879 50bd 780f ac3c 56d9 c53d
00000170: 3a74 9a3d a60f a73d c953 18be 1c12 2f3d
00000180: 8bc2 54be 2c6d 773d b71d e9bd 5064 16bd
00000190: 094e 41be 8ec5 973d e001 42bc adea dcbd
000001a0: ffba 2f3e 2d0a 0e3e e0be 113d c279 94bd
000001b0: 980d f8bd 702b c03c 9498 36bd 0443 4bbe
000001c0: 16bd cc3d 3823 033d 787d 43bd 39d7 243e
000001d0: d227 cd3d be94 a4bd c6e5 a63d 7716 323e
000001e0: 0096 97ba b055 94bd 4054 de3c 601a c03c
000001f0: 24d7 78bd 04cf 1bbd 2582 083e 5e87 993d
00000200: a8af 08be 5a65 93bd 72f6 cb3d 7689 debd
00000210: cc40 583d 48c7 85bd ca3c 43be c26e a33d
00000220: 56f9 e33d 0e30 923d 0007 6eba 8a49 4ebe
00000230: 64b8 7a3d 88a6 1bbe ae53 d63d cf40 203e
00000240: cd42 1a3e fce2 27bd e698 0bbe 50db c13c
00000250: a1c6 4d3e b818 17bd 1086 ed3c 5c4d 6d3d
00000260: aef3 953d 3af9 bb3d 738d ebbd 183e 07bd
00000270: 1fdd 123e 849a 19be 3519 0c3e 9627 873d
00000280: 4cd1 9cbd 0425 5fbd d373 3b3e faa7 f93d
00000290: bcad a3bd edd5 1bbe dd6c c9bd 6356 c7bd
000002a0: e261 98bd 009a 993a 29fd 04be bc61 673d
000002b0: 0fbd c3bd e815 a4bd 28f1 45be 0a2e f83d
000002c0: 4cac 673d e013 f8bb a8ff 9ebd f15b 033e
000002d0: e615 cfbd 1c40 57bd 74f9 32bd 94ac 18be
000002e0: 4c8a 5dbd eba7 52be 2ac4 d7bd cc2d 2b3d
000002f0: 1864 83bc acc8 6b3d b8bf 28be 28ab 76bd
00000300: aeca a63d da3c d73d 8205 a83d d036 7cbd
00000310: 5e15 823d e753 f4bd df52 073e 0039 b1bc
00000320: 9a76 2cbe 581a e1bd 56bc 8d3d ce43 30be
00000330: 1b92 253e 968a eebd 7e7b ec3d a3ee 403e
00000340: b4b0 4e3d 4067 e43c 0044 1abd 13dc 043e
00000350: b8c4 1dbd 90b8 a3bd b0b2 07bc 5532 16be
00000360: 1cd9 01be e08a 763c d7fc 443e b0ce 18bd
00000370: c05d dcbb 4eb2 ef3d db69 f6bd c0dc 8ebb
00000380: a784 433e 30cb 0ebd 5b35 25be e010 9d3c
00000390: cc6b 4d3d 5cd3 1e3d 18f2 9fbd 32ab 3cbe
000003a0: 6228 b53d 2b4c 213e eea8 853d e18f 1fbe
000003b0: ecd8 553d d8ca 1c3d 6c30 9cbd 7248 a8bd
000003c0: bed9 ab3d d058 7abc 8dea 143e 2f64 423e
000003d0: 4026 4dbb b6b7 21be 2b40 383e 9e71 b33d
000003e0: 8a79 893d 3dbf 2b3e 2002 0a3d 9cfe 003d
000003f0: 85cb 0c3e a8af ce3c e71b 203e bce4 593d

arith.constant1 f4 [1, 64]
0.041938573 0.14822721 0.2985695 -0.20196527 -0.123908654 -0.057198673 -0.008846849 0.16434091
0.19310692 0.23310256 0.033198625 -0.27168044 0.1943106 -0.16256881 -0.16355127 0.18466848
0.194318 -0.08509813 -0.24003175 -0.24651606 0.08262232 0.26640815 -0.17201087 0.262716
0.02532193 0.03285384 -0.1871624 -0.23442963 -0.21278965 -0.22010149 0.2556221 -0.02791214
0.06777081 0.037542015 -0.2847584 0.08803117 -0.038615525 -0.17215176 -0.08159147 0.08910003
-0.027021796 0.29507506 0.26743776 0.15313792 0.16876984 -0.228652 -0.23621157 0.06378353
0.012106001 0.18893912 0.25657094 -0.060527727 0.13201839 0.19709331 0.25885183 -0.21058229
0.041161686 -0.029553115 -0.16968812 0.09545711 0.13535693 -0.26833272 -0.17819175 0.23484433
00000000: c8c7 2b3d e0c8 173e 1ade 983e fccf 4ebe
00000010: d2c3 fdbd 2849 6abd 60f2 10bc fc48 283e
00000020: d2bd 453e 70b2 6e3e 48fb 073d b319 8bbe
00000030: 5cf9 463e 7078 26be fc79 27be bc19 3d3e
00000040: 4cfb 463e ee47 aebd e2ca 75be b56e 7cbe
00000050: e435 a93d a666 883e 9e23 30be b682 863e
00000060: f06f cf3c c091 063d 80a7 3fbe 520e 70be
00000070: 88e5 59be 4962 61be e6e0 823e 00a8 e4bc
00000080: 6ccb 8a3d a8c5 193d dacb 91be b049 b43d
00000090: 502b 1ebd 8d48 30be 6e19 a7bd 147a b63d
000000a0: d05c ddbc 1414 973e 9aed 883e 30d0 1c3e
000000b0: 00d2 2c3e c023 6abe 72e1 71be f0a0 823d
000000c0: 4058 463c 4279 413e 445d 833e eceb 77bd
000000d0: d42f 073e d4d2 493e 3a88 843e e2a2 57be
000000e0: 2899 283d 6019 f2bc b9c2 2dbe 047f c33d
000000f0: 029b 0a3e e862 89be e677 36be 087b 703e

tfl.pseudo_qconst i1 [64, 128]
47 -122 -47 67 -101 -24 -16 119
-76 120 106 -120 -51 -84 123 51
83 20 -73 -32 -68 95 -52 30
-125 -33 29 125 22 109 -123 -45
-76 -109 109 91 115 0 -117 -27
-70 81 78 -48 -64 119 -19 -119
-52 -13 -119 -30 62 39 -54 -42
0 -52 -65 -58 -18 -91 52 57
-97 -6 117 -16 102 -98 -77 125
117 -96 -99 48 -105 -44 27 63
-62 6 -77 81 -72 79 56 -52
10 -106 4 -70 51 -127 102 -17
-13 107 34 -55 115 53 88 126
95 -71 47 44 -104 48 52 -30
68 -45 -26 -110 88 -117 -119 -1
56 -26 84 33 -117 22 29 -31
-79 55 -121 11 51 126 -119 -22
-92 -94 -34 109 81 45 -5 -1
-46 56 93 106 23 -102 81 71
87 -67 -112 -2 -26 -74 -58 95
-120 -27 28 110 -119 -103 92 125
126 -34 76 118 -116 46 29 -14
107 104 45 126 42 -21 -2 -28
-18 -63 48 111 -43 -110 30 -103
2 -2 105 -45 110 -7 -33 -14
-60 -14 -84 15 0 23 -44 -79
-2 -114 78 75 119 -124 71 -123
2 17 117 45 -63 -125 38 78
-110 16 82 47 -106 111 -111 32
-66 22 -127 0 -54 -127 -23 -21
-30 93 -84 -9 84 8 61 -38
124 17 -123 -15 24 -77 27 -115
00000000: 2f86 d143 9be8 f077 b478 6a88 cdac 7b33
00000010: 5314 b7e0 bc5f cc1e 83df 1d7d 166d 85d3
00000020: b493 6d5b 7300 8be5 ba51 4ed0 c077 ed89
00000030: ccf3 89e2 3e27 cad6 00cc bfc6 eea5 3439
00000040: 9ffa 75f0 669e b37d 75a0 9d30 97d4 1b3f
00000050: c206 b351 b84f 38cc 0a96 04ba 3381 66ef
00000060: f36b 22c9 7335 587e 5fb9 2f2c 9830 34e2
00000070: 44d3 e692 588b 89ff 38e6 5421 8b16 1de1
00000080: b137 870b 337e 89ea a4a2 de6d 512d fbff
00000090: d238 5d6a 179a 5147 57bd 90fe e6b6 c65f
000000a0: 88e5 1c6e 8999 5c7d 7ede 4c76 8c2e 1df2
000000b0: 6b68 2d7e 2aeb fee4 eec1 306f d592 1e99
000000c0: 02fe 69d3 6ef9 dff2 c4f2 ac0f 0017 d4b1
000000d0: fe8e 4e4b 7784 4785 0211 752d c183 264e
000000e0: 9210 522f 966f 9120 be16 8100 ca81 e9eb
000000f0: e25d acf7 5408 3dda 7c11 85f1 18b3 1b8d
