assets/ai_models/fitness_model_v1_workout_type.tflite (tflite, 15368 bytes, 3 tensors)

arith.constant f4 [128, 7]
00000000: 555f 523e 802d be3a 5e91 bfbd 3286 8b3d
00000010: 9c7c 46be e8a7 97bc c117 54be 0028 bc39
00000020: 7827 043d 14f5 2cbe f7cb 36be 943e 6bbd
00000030: d0c7 99bc 8056 0e3c 313d 113e 63ba 3b3e
00000040: 4062 85bb d7ff b5bd de4b a43d 5ef8 f23d
00000050: 96be e83d b81c 1b3d 2088 e5bb e0f3 16bc
00000060: e484 6bbd a73d 313e 515a 3dbe 6ca7 c7bd
00000070: 2419 543d 5f58 333e e41f e4bd fe3f ac3d
00000080: e9ca 003e fd66 4b3e c00d ec3c a26d 44be
00000090: f289 db3d b449 39be d21d e73d 4863 27bd
000000a0: 4667 00be e027 513c 12ea c13d 687b 4bbd
000000b0: cd0c 23be e976 183e b47c 7fbd 3467 a0bd
000000c0: d6e1 f63d 50c0 c33c cfd7 20be 8e66 e93d
000000d0: 6094 9fbb 2770 3dbe d80b 90bd f4ea 3dbe
000000e0: abaf 323e d04b c83c 401a 10be daa7 a53d
000000f0: 190b 4e3e 6e98 d23d 5a14 e43d 6a18 9e3d
00000100: 80ff 2b3b a4f3 71bd f67f e33d 94c1 233d
00000110: 1c4e 8bbd 8091 3dbe 6804 b73c bcaa 62bd
00000120: 1900 443e e3ec e0bd d23b 803d 50a5 1cbd
00000130: 6e1f c8bd 524b 41be 2cc0 3d3d 2b40 34be
00000140: f03c 5bbc d06b a13c c22a 923d 1cba 743d
00000150: 7292 fbbd 145f 653d 3fbe 433e 929a c03d
00000160: 6a86 9f3d 5bd4 403e 5f44 3b3e 75a9 123e
00000170: 0027 883b 2a93 35be e810 ce3c 9a1f 03be
00000180: 4d3c 003e ae55 ca3d 2e6d ac3d 5e30 1abe
00000190: 08d4 033d 24d3 17bd 08b2 bcbd f6af 06be
000001a0: cae5 dd3d ff93 193e ae48 9f3d ebd5 0f3e
000001b0: b8f6 d8bd 6738 1ebe e39b 33be 1e61 f93d
000001c0: dc93 543d 1015 edbc d0bc a03c f923 493e
000001d0: dc65 4fbd 70d4 433c e35a 1b3e bc82 533d
000001e0: 34af 40bd ec06 673d caf3 b83d 5038 4ebc
000001f0: ca37 843d 15d1 423e c70d d9bd d047 59bc
00000200: 0c7c 14bd 7394 083e 5ede cb3d fc5b 633d
00000210: bab3 b73d 1843 e9bc 7f49 35be 7e36 d73d
00000220: af41 ccbd 5bd3 383e 92d5 3abe 6011 5ebd
00000230: 0bad 51be 53d4 073e f000 edbc e07d 183c
00000240: be78 9f3d 889b d1bc b12f 023e 5ead 88bd
00000250: e8eb adbc d119 313e 6865 a8bd f71f 50be
00000260: b981 513e f3e4 17be c8c9 34be 8079 86bc
00000270: eab7 f83d 664d c93d 1fe6 1c3e 1e89 fd3d
00000280: cb45 38be d028 f63c d180 283e efa1 4f3e
00000290: f545 243e d331 023e b815 e0bc 7277 45be
000002a0: 766e c8bd 40a9 763b 7c0c 2bbd 0d38 ecbd
000002b0: 04a2 6f3d 05e1 1dbe 5c64 1ebe 6a35 913d
000002c0: 2831 eebc 2a8e a73d a094 2f3c e09a 503c
000002d0: 8aa7 eb3d 5b5c 0bbe 4002 103d 41f2 1ebe
000002e0: b1fb 2e3e 31b0 373e 830f 4abe 4afb 823d
000002f0: c601 3ebe de3d ca3d c135 423e 6edc dfbd
00000300: 1865 1fbe a0f4 ccbc d8df debd 986c a5bd
00000310: e7c1 b0bd d5b1 2a3e 1404 34bd a08c 5e3c
00000320: cb4f 003e 9f96 263e fa3c 8a3d fa31 4fbe
00000330: 22d4 d53d 8fa3 4c3e 5b9f 503e fd24 2b3e
00000340: d8a8 28be 649f 0a3d 1e50 d03d 341e 733d
00000350: f4c1 eabd a62f bb3d eee8 d13d 1e48 07be
00000360: 234e 173e 943d 09be 87eb 293e a6e9 9cbd
00000370: e99a 513e ea96 3fbe 129e 9e3d 5ab0 f03d
00000380: 2f28 d5bd 6081 303c 38c9 183d 0634 e03d
00000390: 2f33 e0bd 9aa6 bb3d 8c99 44bd 4ff1 4a3e
000003a0: 4e54 f33d e2a9 4dbe e831 fcbc 9d78 34be
000003b0: fc56 3bbe ebca 4c3e e281 27be 340f 1abe
000003c0: 0ed4 f6bd 82bd 833d 6e89 28be aeb3 b13d
000003d0: cc1f 453d 96ff e73d 8493 78bd 6e2b 4fbe
000003e0: c6f5 96bd a8fb adbd cd31 253e b81d 0cbd
000003f0: 6836 9d3c 22f0 873d 20dc f23b 7c96 18be
0.20544179 0.001450941 -0.093538985 0.06812705 -0.19383472 -0.018512681 -0.20712186 0.00035887957
0.032264203 -0.16890365 -0.17851244 -0.057432726 -0.018772036 0.008687615 0.14183499 0.1833282
-0.00407055 -0.08886688 0.08022283 0.118637785 0.113644764 0.037869185 -0.0070047528 -0.009213418
-0.05749978 0.17308675 -0.18491484 -0.0974873 0.05178179 0.1751418 -0.11138895 0.08410643
0.12577404 0.19863506 0.02881515 -0.19182447 0.1071967 -0.18094522 0.11284985 -0.040866166
-0.12539396 0.012765855 0.094684735 -0.049678236 -0.15922852 0.1488911 -0.062374786 -0.078321844
0.120547935 0.023895413 -0.15707324 0.11396514 -0.0048699826 -0.18499814 -0.07033509 -0.18546659
0.17449825 0.024450213 -0.14072514 0.08088656 0.20121421 0.1028298 0.11136694 0.077195
0.002624482 -0.059070244 0.11108391 0.039979532 -0.068020076 -0.18512535 0.022340968 -0.055338606
0.19140662 -0.109826826 0.0626141 -0.03824359 -0.0977162 -0.18876389 0.046325848 -0.17602603
-0.013381228 0.01970473 0.07137062 0.0597478 -0.122837916 0.055998877 0.19115542 0.09404482
0.07789309 0.18831007 0.182878 0.14322455 0.00415504 -0.1773192 0.025154546 -0.12805024
0.12523003 0.09879623 0.08419262 -0.15057513 0.03218463 -0.037066594 -0.09213644 -0.13153061
0.108348444 0.14997862 0.077775344 0.14046447 -0.10593933 -0.15451203 -0.17539935 0.12176727
0.051898822 -0.028940707 0.019621283 0.19642629 -0.05063425 0.0119525045 0.1517139 0.05163835
-0.047042087 0.056403086 0.09030874 -0.012586668 0.064559534 0.19025071 -0.10598331 -0.01326175
-0.036251113 0.13337879 0.099545226 0.055507645 0.08969827 -0.028474376 -0.17703818 0.105084404
-0.09973466 0.18049376 -0.18245533 -0.05421579 -0.20476167 0.13264589 -0.028931111 0.009307355
0.077867016 -0.025586858 0.12713505 -0.06673692 -0.021230653 0.17295004 -0.08222467 -0.20324694
0.20459642 -0.14833431 -0.17655098 -0.016415358 0.12144454 0.09829216 0.15322159 0.12379669
-0.17995374 0.030048758 0.1645539 0.20276617 0.16042311 0.12714319 -0.027354106 -0.19283846
-0.09786694 0.0037637502 -0.041759953 -0.11534128 0.05850412 -0.1541787 -0.15467972 0.07090266
-0.029076174 0.081814125 0.010716587 0.012732238 0.11506565 -0.1360945 0.035158396 -0.155221
0.170882 0.17938305 -0.1973248 0.06395586 -0.18555364 0.098750815 0.18965818 -0.109307155
-0.15565908 -0.02501899 -0.108825386 -0.08077353 -0.08630734 0.166694 -0.0439492 0.013583332
0.12530439 0.16268395 0.067499116 -0.20233908 0.10440852 0.19984268 0.2037329 0.16713329
-0.16470659 0.033843413 0.10171531 0.059354976 -0.11462775 0.091399476 0.10249506 -0.13211104
0.147759 -0.13402396 0.16593753 -0.076617524 0.2046925 -0.18709913 0.07744993 0.117523864
-0.10408055 0.010773033 0.037301272 0.10947423 -0.109472625 0.09162636 -0.047997996 0.19818614
0.11881314 -0.20084336 -0.030785516 -0.17624135 -0.182949 0.19999282 -0.1635814 -0.15044862
-0.12052165 0.0643263 -0.16458675 0.08676849 0.048126027 0.11328046 -0.060687557 -0.20231411
-0.07371096 -0.08495265 0.16132279 -0.03420803 0.019190982 0.066375986 0.007411495 -0.14901155

arith.constant1 f4 [4, 64]
00000000: 589d 723d 72bd 1cbe b8ea 34be c88c 513d
00000010: 0416 8abd 7aaf 6ebe e4c1 cabd 8488 f83d
00000020: b2c3 eebd c06d b93c f472 8fbe 1606 c3bd
00000030: c000 ef3c 7e69 8c3e a414 54bd 6769 36be
00000040: bc4b 3c3e 678a 0ebe 3a55 5ebe 02af e4bd
00000050: 7aaf 1e3e aa37 37be 648c dc3d c13a 05be
00000060: 8098 773e c036 34bd 10c0 ef3d 00a4 c3bb
00000070: 00a8 18bc 3852 9f3d 20ea 62be 3036 413d
00000080: fcc3 95bd 3fc9 87be be25 62be b87c 6abd
00000090: c2d3 133e 70bc 053d 9cd5 4ebe 80a9 c33b
000000a0: 7eda e9bd 7338 7fbe e800 753e 8afc aebd
000000b0: 344c d33d 5c2b 54bd b89d 1bbd 0c96 51be
000000c0: 28d1 5cbd f013 f3bc a073 623e 70a9 e93c
000000d0: acc9 383e 1a1e e0bd 8869 643d 2c85 71be
000000e0: 5007 053d a41c 353e 4449 8b3d 5cd9 803d
000000f0: d06e 913e f4cc eabd 20bc 9cbc a4ca 853e
00000100: ec0e 5e3e 80a4 a43d 2dd4 5fbe b17a 25be
00000110: a8fd 413d 0052 653a de26 103e 0f9b 8ebe
00000120: 3c9d 813e 1c76 4d3e a848 133d cdbd 06be
00000130: e0f0 a6bd 906d 803d 6673 aabd 70fa 933e
00000140: aa41 3ebe 9cc4 cb3d 44de 283e 80dd 6ebc
00000150: 0024 f9b9 84bd 623e b43c 053e b80c 3fbd
00000160: 4685 343e 60cf 813e 7067 333d 80b6 123e
00000170: 165c 4c3e 0018 d7b9 76ec 3ebe 0c04 6dbe
00000180: f975 1bbe 82ab 93be 7e4d 283e ad2d 7bbe
00000190: 60ef fe3d 168d 06be 082e 763d f6d7 933e
000001a0: 9c85 683e ccc9 63bd 001b 21bb 6250 003e
000001b0: 9035 8dbc cc9d 823d 58dc 5dbd 2039 a73c
000001c0: 0c2e e83d 5c83 45be 3513 8bbe 7046 d73d
000001d0: 38f1 c43d 8650 213e e9ec 33be 803b 433c
000001e0: 3c69 e1bd 9809 603d fc15 513e fe26 b2bd
000001f0: a2f6 5fbe 96b2 46be 9a6b cdbd 66c2 7cbe
00000200: 0853 673e 8881 033e d3c7 46be 68eb 503d
00000210: 0a89 cfbd 805b 2cbc de88 6cbe d40c 04be
00000220: cb6f 5fbe 8474 be3d 06a6 953e 3425 893e
00000230: a8d7 633e e489 1c3e 5015 5ebd a8d8 7d3e
00000240: d094 e4bc 8fc1 5ebe bcb0 f4bd 2012 703c
00000250: a6f0 37be b687 8b3e af23 86be 40b5 293e
00000260: f0d1 963c 32e4 40be 5c3e ac3d d0c3 a03c
00000270: 708f 7f3e 7460 4abd 905d 823e 8fa7 94be
00000280: 406d 033d 665e babd 1010 18be 0271 1d3e
00000290: 04f2 4f3e 6a13 4fbe ba7c 1c3e 4037 69bc
000002a0: 70ed 563e 4c4d 823d 8f19 0abe 48ac 4f3e
000002b0: 2ce3 d0bd e45b f4bd 94eb 1dbe 08b9 0bbe
000002c0: 0004 5e3d 8037 7fbb 9832 6a3d dcdc 1b3e
000002d0: b47e 50bd e04e 1abd 96f0 53be b84c 393d
000002e0: 1e41 40be bc76 463e 7a2c 873e d43c fc3d
000002f0: 8002 5b3c a0de 443d dc9f 633e 26ae 213e
00000300: bc9c 363e e01e 98bd 70a5 ea3d 4414 973e
00000310: 40a7 36bc c8d9 3ebd 5831 6a3d 9f5c 0ebe
00000320: b89b 6ebe ec4c 6f3e c004 efbb 64fa e2bd
00000330: 4cc5 66be e07e 19bd 023c 463e 9200 293e
00000340: 08f7 6b3e 1435 58be dadb 32be 5881 f13d
00000350: 939d 80be 301b dbbc c451 8abe 80df 113e
00000360: b00e 85bc 809e 5b3c e0dd 3bbc ecba f0bd
00000370: 2030 a63d a837 203d 6634 1b3e 8475 943e
00000380: 6af7 3e3e 81b9 19be 86c0 bebd d8d4 9a3d
00000390: d08a 1abd 0000 b1ba 20f4 883c 825b 293e
000003a0: e24e 52be 70f4 07be 04fe cb3d cd4a 1dbe
000003b0: 007c 48ba 3669 953e b028 c4bc 0c56 0abe
000003c0: b8f8 5a3d 6af1 873e b576 93be 40ee 953c
000003d0: 044b 723e 070a 28be 1887 e43d 925c 463e
000003e0: a0e5 4d3c 146d 2c3e f26a 3b3e 8c80 883d
000003f0: 2865 503d 8683 073e 2ce1 493e 688a 683d
0.059232086 -0.15306643 -0.17667663 0.05115965 -0.067424804 -0.23309126 -0.09900263 0.12135413
-0.1165842 0.02263534 -0.2801739 -0.09522645 0.029175162 0.27424234 -0.051777497 -0.17813645
0.18388265 -0.13919984 -0.21712199 -0.111661926 0.15496626 -0.17892328 0.10768965 -0.13010694
0.24179268 -0.043997526 0.11706555 -0.005970478 -0.009317398 0.07779354 -0.22159624 0.047170818
-0.07312772 -0.26520726 -0.2208471 -0.057247847 0.14436248 0.03265041 -0.20198673 0.0059711337
-0.11418627 -0.24923877 0.23926127 -0.08544262 0.10317269 -0.051799163 -0.03799221 -0.20467395
-0.053910404 -0.029672593 0.2211442 0.028523177 0.18045682 -0.109432414 0.055764705 -0.23585957
0.032477677 0.17686707 0.06801084 0.06291458 0.28404856 -0.11464873 -0.019132674 0.26131165
0.2168538 0.080391884 -0.21858282 -0.16160084 0.047361046 0.00087478757 0.14077327 -0.27852675
0.25315273 0.20064586 0.035957962 -0.13158341 -0.08151412 0.062708974 -0.08322792 0.28902006
-0.18579736 0.0994961 0.16491038 -0.014579177 -0.00047519803 0.22142607 0.13011438 -0.04664299
0.17628965 0.25353527 0.043799818 0.1432743 0.19957003 -0.00041025877 -0.1864489 -0.23146075
-0.15181722 -0.28841788 0.16435811 -0.24529143 0.12448001 -0.13139758 0.060102493 0.28875703
0.22707218 -0.05561237 -0.0024582744 0.12530664 -0.017237455 0.063777536 -0.054165214 0.020412982
0.11336908 -0.19288391 -0.2716309 0.10511482 0.09616321 0.15753374 -0.17570843 0.011916041
-0.110064 0.05469665 0.20418543 -0.086988434 -0.21871427 -0.19404063 -0.10030289 -0.24683532
0.22590268 0.12842381 -0.19412164 0.05100575 -0.1013356 -0.010519862 -0.23099086 -0.12895519
-0.2181999 0.09299567 0.29228228 0.26786196 0.22250235 0.15286976 -0.054219544 0.24789679
-0.02790299 -0.21753524 -0.11947772 0.014652759 -0.17962894 0.27251977 -0.261991 0.16573048
0.018410653 -0.1883705 0.084103316 0.01962462 0.24957061 -0.04940839 0.25462008 -0.29034087
0.03208661 -0.09100036 -0.14849877 0.1537514 0.20307165 -0.2022225 0.15281954 -0.014234364
0.20989013 0.063623995 -0.13486312 0.20280564 -0.101995796 -0.11931589 -0.15421897 -0.13644803
0.054203033 -0.0038942993 0.057177156 0.1522097 -0.050902084 -0.037672877 -0.20697245 0.04523918
-0.1877484 0.19381231 0.2640112 0.123162895 0.013367295 0.048063874 0.2222895 0.15789089
0.17833227 -0.07427764 0.11457336 0.2950765 -0.011148274 -0.04659441 0.057175964 -0.1390252
-0.2330159 0.23369187 -0.0072942674 -0.110829145 -0.225362 -0.037474513 0.19358829 0.16504124
0.23043454 -0.21113998 -0.17466679 0.117922485 -0.2512022 -0.026746362 -0.27015507 0.14245415
-0.016242355 0.013404489 -0.011466473 -0.117544025 0.08114648 0.039115578 0.15156707 0.28995907
0.18649068 -0.1501217 -0.09314065 0.07560128 -0.03773004 -0.0013504028 0.01671797 0.16538814
-0.20537904 -0.1327684 0.09960559 -0.15360565 -0.0007647872 0.29181832 -0.023945183 -0.13509387
0.053459853 0.26551372 -0.28801504 0.018302083 0.23661429 -0.16410075 0.111585796 0.1937125
0.012566954 0.16838485 0.18302515 0.06665143 0.05087772 0.13233766 0.19714803 0.05677262

tfl.pseudo_qconst i1 [64, 128]
00000000: c32f b347 2e09 0672 27b8 25df 9d63 04d1
00000010: 2a10 411a fe41 e429 82de 8912 f07b 7e39
00000020: eaf7 da87 9263 ca11 f995 6575 f010 fd0a
00000030: 6dc6 758a 9c1a 7577 f8cc 77e7 2046 6044
00000040: 9043 8146 4f92 8d45 8f89 8cbd 48e5 c2ed
00000050: cf9b 47c4 1509 c285 56a4 7046 9a89 0d10
00000060: 3323 0745 a1f6 5dcc 503f 25ac a301 09ea
00000070: 3206 57a0 8966 fdfc d295 c851 767a edfd
00000080: f286 75c8 df9d f321 93bd 17fb f7b3 bb02
00000090: 5868 3d4b a66e 11fe aa14 5ea4 2ef4 cb7f
000000a0: c49b 9945 2d51 34e5 9e59 f1c9 3900 d613
000000b0: c3e7 e616 134d 8600 4ff8 896d e139 9f93
000000c0: 0be3 f99b 5084 42b1 e1cd e140 87cf c98e
000000d0: 0f22 e135 7b0d e807 02f6 5e22 2e71 d3d8
000000e0: 8f4a 1af3 25c3 168e 8a6a 8604 34e0 f3fb
000000f0: 635e d467 5252 f699 5ed4 85be e4ad 1fa0
-61 47 -77 71 46 9 6 114
39 -72 37 -33 -99 99 4 -47
42 16 65 26 -2 65 -28 41
-126 -34 -119 18 -16 123 126 57
-22 -9 -38 -121 -110 99 -54 17
-7 -107 101 117 -16 16 -3 10
109 -58 117 -118 -100 26 117 119
-8 -52 119 -25 32 70 96 68
-112 67 -127 70 79 -110 -115 69
-113 -119 -116 -67 72 -27 -62 -19
-49 -101 71 -60 21 9 -62 -123
86 -92 112 70 -102 -119 13 16
51 35 7 69 -95 -10 93 -52
80 63 37 -84 -93 1 9 -22
50 6 87 -96 -119 102 -3 -4
-46 -107 -56 81 118 122 -19 -3
-14 -122 117 -56 -33 -99 -13 33
-109 -67 23 -5 -9 -77 -69 2
88 104 61 75 -90 110 17 -2
-86 20 94 -92 46 -12 -53 127
-60 -101 -103 69 45 81 52 -27
-98 89 -15 -55 57 0 -42 19
-61 -25 -26 22 19 77 -122 0
79 -8 -119 109 -31 57 -97 -109
11 -29 -7 -101 80 -124 66 -79
-31 -51 -31 64 -121 -49 -55 -114
15 34 -31 53 123 13 -24 7
2 -10 94 34 46 113 -45 -40
-113 74 26 -13 37 -61 22 -114
-118 106 -122 4 52 -32 -13 -5
99 94 -44 103 82 82 -10 -103
94 -44 -123 -66 -28 -83 31 -96
