assets/ai_models/fitness_model_v1_calories_burned.tflite (tflite, 14416 bytes, 3 tensors)

arith.constant f4 [128, 7]
000000 e0 42 ec bc 00 2f 10 3b 2e 16 0b be ba 5e 14 be
       -0.028840482 0.002200067 -0.1358268 -0.1448926
000010 02 bb 54 be 44 80 6a bd 12 9b e7 3d ce cf 90 bd
       -0.20774463 -0.05725123 0.11308874 -0.070708856
000020 48 cd c1 bc 84 5b 0a 3d 13 a9 3f 3e c4 f6 46 be
       -0.023657456 0.033778682 0.1871684 -0.19430071
000030 03 e3 50 be dc 6d 4b bd 5c 52 3f bd 37 36 41 3e
       -0.20399098 -0.049665317 -0.046709403 0.18868338
000040 12 ea 02 be b2 f5 a3 3d f4 d4 f0 bd 82 d3 05 be
       -0.12784603 0.08005847 -0.117593676 -0.13068965
000050 94 f6 38 bd be b4 82 3d ed 20 57 be 6c b5 ed bd
       -0.04515703 0.0638213 -0.21008654 -0.11606869
000060 9a 03 0c be 00 1a 01 3a e8 d4 34 bd 6c 93 22 be
       -0.13673249 0.0004924834 -0.044148356 -0.1587655
000070 6a 9e f1 3d de ca ef 3d 2e ce d5 bd 36 b8 f7 bd
       0.11797793 0.11708616 -0.10439716 -0.12095682
000080 b8 42 08 3d a0 ca e6 3c 1a 61 fe bd c3 57 09 3e
       0.033266753 0.028172791 -0.124208644 0.13412385
000090 ab 80 2b 3e 45 ea 14 3e ea 5e ce 3d 25 80 fe bd
       0.16748302 0.14542492 0.10076697 -0.124267854
0000a0 7b e9 b6 bd da 75 49 be f3 d2 d5 bd 33 a7 07 be
       -0.089312516 -0.19673863 -0.10440626 -0.13247375
0000b0 38 d4 aa bd 99 3b 52 3e a4 74 e6 bd 6c a3 1e be
       -0.08341259 0.20530547 -0.11252716 -0.15492028
0000c0 ac a3 53 3d 39 c1 04 be 10 29 93 bc b8 6a c6 3c
       0.05166976 -0.12964334 -0.017963916 0.02422081
0000d0 50 e7 14 3d 32 9d c9 bd b0 b9 52 bc be b3 43 be
       0.03635341 -0.09844436 -0.012861654 -0.19111535
0000e0 96 1f 2e be 88 91 86 3c 48 30 aa 3c dc c1 6e 3d
       -0.17004237 0.016426817 0.020774975 0.058290347
0000f0 cd 62 fb bd 80 60 8b bc 80 8f a2 ba 32 9a b7 3d
       -0.12274704 -0.017013788 -0.0012402385 0.08964957
000100 70 de 48 bd b6 c9 e6 3d d9 7e 12 3e 1d e8 51 3e
       -0.049040258 0.11268942 0.14306201 0.204987
000110 1e 8c cf 3d 1a 34 d6 3d 38 60 ca 3c d8 4e c5 3c
       0.10134147 0.10459156 0.024704084 0.024085447
000120 6c 27 59 3d c5 a9 23 be d4 57 5a 3d 86 88 90 3d
       0.05301611 -0.1598273 0.053306416 0.0705729
000130 1a d0 b6 bd a0 d9 e1 3c c4 12 6b 3d 88 d2 13 be
       -0.08926411 0.027569592 0.057390943 -0.1443578
000140 36 a5 ae 3d f0 37 a7 bd 98 eb 8b bd 02 38 23 be
       0.08527605 -0.08164966 -0.06832045 -0.15939334
000150 94 14 7a bd fd f4 2c 3e 64 bb 43 3d 04 7b 48 be
       -0.06105478 0.1689033 0.04778613 -0.19578177
000160 e0 3e 41 3c 89 07 1b be 00 0f 74 3b 46 55 e1 3d
       0.011794776 -0.15139593 0.0037240386 0.11002593
000170 b0 27 c6 3c 3e f4 f5 3d 9a 60 1f be 6d 20 35 3e
       0.024188846 0.12009476 -0.15564194 0.1768815
000180 a6 14 17 be d0 44 dd 3c 1e 1c 9b 3d 3c 2e 9e bd
       -0.1475397 0.027010351 0.07573722 -0.07723662
000190 5e b0 9d 3d 34 84 5f 3d d0 62 ab bd bd 01 33 be
       0.07699655 0.054569438 -0.08368456 -0.17481132
0001a0 e8 43 fa bd f0 1a ff bc f4 98 35 bd d2 7c a5 bd
       -0.12219983 -0.031140774 -0.04433532 -0.08080448
0001b0 10 1f be bd 09 fe 13 3e cb 32 b1 bd b1 5c 33 3e
       -0.092832685 0.14452375 -0.08652266 0.17515828
0001c0 60 69 34 bd a8 cc 22 bd f5 b9 45 3e 87 13 cf bd
       -0.044045806 -0.039745957 0.19309218 -0.101111464
0001d0 8f 16 4c 3e ae 0a 1f be aa b7 c8 3d cd e2 00 3e
       0.1993048 -0.15531418 0.09800656 0.12586518
0001e0 e8 d4 2a be 24 d5 8b bd 97 df 48 be c6 0b ec 3d
       -0.1668278 -0.06827763 -0.19616543 0.11525683
0001f0 5f 19 3d be ca 64 0a be b2 8f 95 bd de c1 dd bd
       -0.1846671 -0.1351501 -0.07302798 -0.10827993
000200 88 df 16 be de ac e7 3d af fc 0c 3e 30 4e 6a bd
       -0.14733708 0.11312269 0.13768266 -0.05720347
000210 66 0d b5 bd fa 1d a1 3d 2a 47 88 3d 10 0e 3e bd
       -0.08840446 0.07867046 0.066541985 -0.04640013
000220 8f 84 2a 3e bf a5 42 3e 98 ce 1b 3d 1d 4e c7 bd
       0.1665213 0.1900854 0.03803882 -0.09731696
000230 3e 69 af bd fc dd 2a 3d 4f c3 01 3e 52 c7 f6 3d
       -0.08564995 0.041715607 0.1267216 0.12049736
000240 09 6e 0a 3e 5d 68 18 3e b0 e1 a5 3c 30 09 e0 3c
       0.13518538 0.14883561 0.020249218 0.027348131
000250 90 c9 b8 bc 41 77 42 3e 9b bf b4 bd 78 b3 f9 bd
       -0.02255705 0.18990804 -0.08825608 -0.12192434
000260 30 fb 1a be 31 92 46 3e 58 c4 48 bd d0 49 78 bc
       -0.15134883 0.19391705 -0.049015373 -0.015154317
000270 a7 86 e5 bd 00 b9 70 bd 00 cc 3d b9 f4 3c 35 3d
       -0.112073235 -0.05877018 -0.0001810044 0.044247583
000280 c0 53 74 bc 1d ec 19 3e 64 77 ce bd 8f 02 31 3e
       -0.014912546 0.15031476 -0.10081366 0.17286132
000290 b3 d1 38 3e b0 18 b0 bc d9 fe 3e be b6 24 2f be
       0.18048744 -0.021496147 -0.18651904 -0.17103848
0002a0 60 f9 a8 3b 00 f4 85 bd 20 82 71 bc a3 81 20 3e
       0.005156681 -0.0654068 -0.014740497 0.15674452
0002b0 45 58 e5 bd 03 56 3f 3e 9a 88 d2 3d c0 78 35 3b
       -0.11198477 0.18685155 0.10279961 0.002769038
0002c0 e5 ec e9 bd 1c e8 ae bd e0 de 85 bc 80 d0 d5 bb
       -0.11422137 -0.08540365 -0.016341627 -0.0065250993
0002d0 a8 a5 22 be bb d7 f3 bd e9 cf 0d be d4 d9 65 3d
       -0.15883505 -0.11906382 -0.13848843 0.05611594
0002e0 fe 32 cd bd c9 e0 33 be 19 18 3d 3e 4f 23 57 be
       -0.100194916 -0.17566217 0.18466224 -0.21009563
0002f0 90 0b fe bd b4 c5 07 bd 46 f7 83 3d 3a 03 e1 3d
       -0.12404549 -0.03314753 0.06443648 0.109869435
000300 fa e9 c2 bd d1 1d 56 3e 38 8d 17 be 58 a8 a7 3c
       -0.09517284 0.20909812 -0.14799964 0.020466015
000310 c2 69 e6 3d 20 62 0a bc 23 95 06 3e e0 b1 3b be
       0.112506405 -0.008446246 0.13142829 -0.18329573
000320 71 9e 1b be d2 05 8e 3d 62 51 cd 3d 2e d3 9a 3d
       -0.1519716 0.06934704 0.10025288 0.075598106
000330 88 83 09 bd 19 ca ee bd f6 57 ea 3d 3c 91 63 3d
       -0.033572704 -0.11659641 0.114425585 0.05555843
000340 9e 34 c2 3d 7f 0d 06 3e 10 16 bb bc e4 a6 57 bd
       0.09482692 0.13091086 -0.022837669 -0.052649394
000350 82 cd ce bd e0 be c4 bc f3 05 fa bd 84 13 53 3d
       -0.10097791 -0.024016798 -0.12208166 0.051532283
000360 01 25 3f 3e dd 0c 08 3e a8 fe e2 bc da 94 81 3d
       0.1866646 0.13286157 -0.02770932 0.06327219
000370 0c 5d ba bd 84 92 7c 3d 66 3d c2 3d 37 fb 20 3e
       -0.090997785 0.061663166 0.09484367 0.15720831
000380 c1 8f 4a 3e dd e5 25 be 83 e8 0e 3e ce c9 fa 3d
       0.197814 -0.16200967 0.13955884 0.122455224
000390 fd f0 3b 3e 28 a4 25 be f8 46 b3 3c 5d a6 2c 3e
       0.18353648 -0.16175902 0.021884426 0.16860338
0003a0 54 2f 4a 3d f0 c9 bc 3c 99 62 18 3e 50 31 e0 bd
       0.049361542 0.02304551 0.14881362 -0.109469056
0003b0 2c 57 37 be e0 af 9b bd 8f 4e 4a be 55 4e 53 be
       -0.17904347 -0.07601905 -0.1975653 -0.2063535
0003c0 c4 30 77 bd 3d 39 2f 3e e4 dc 0f 3d 30 14 3e bd
       -0.06034924 0.17111678 0.035122767 -0.04640597
0003d0 2e d9 e3 3d e8 e9 bd 3c f4 63 7d bd 65 97 39 3e
       0.11125408 0.023182824 -0.0618629 0.18124159
0003e0 ae 85 fe bd 7b 1f 2e 3e 60 47 56 3c 1f e1 41 be
       -0.12427841 0.17004196 0.013078541 -0.18933533
0003f0 4f 94 50 3e 95 f8 4b 3e ce 37 ce 3d ec c7 40 bd
       0.20369075 0.19919045 0.10069238 -0.04706566

arith.constant1 f4 [1, 64]
000000 c8 cc 21 bd 40 4e f6 bc f2 8a d3 bd de f3 be bd
       -0.039501935 -0.03006661 -0.10329236 -0.09323858
000010 36 40 dd bd 48 18 48 be 33 e3 85 be f0 fd 97 3e
       -0.10803263 -0.19540513 -0.26149902 0.29685926
000020 80 b0 8f 3e a0 83 e3 3d 6a 9e 73 be fd 7e 28 be
       0.28064346 0.1110909 -0.23790899 -0.16454692
000030 a0 e8 be 3c c5 e0 1d be 00 89 5b bb 7a b2 1b be
       0.023304284 -0.15417774 -0.0033498406 -0.15204802
000040 60 e1 90 3c 46 8f 25 3e b6 9e 19 3e 78 36 b9 3d
       0.017685592 0.16167936 0.1500195 0.09043592
000050 60 65 26 3e 3c 8b 4f be a0 6f 8d 3d fc 34 c7 bd
       0.16249609 -0.20267957 0.069060564 -0.09726903
000060 d4 81 91 3e b8 80 18 3e d2 eb 2c 3e d4 85 fb 3d
       0.28419363 0.14892852 0.16886833 0.12281385
000070 12 ad f8 bd be 15 5c be 33 5e 0e be e8 f4 e7 3d
       -0.121423855 -0.21492669 -0.13903122 0.11326009
000080 c8 d9 08 3d 60 99 4c bd cc 21 7b 3e 92 fa 65 be
       0.033410817 -0.049950957 0.24524611 -0.22458866
000090 d8 41 15 bd 54 86 7c 3e 14 9f 85 be 6c 4a ec 3d
       -0.036439747 0.24660617 -0.2609793 0.11537632
0000a0 88 f7 29 3d e0 96 81 bd e0 f1 34 3d d4 30 5b be
       0.04149583 -0.06327605 0.044175982 -0.21405345
0000b0 c8 1d 64 be b8 8b 32 bd 1c 00 82 3d 74 33 8a 3e
       -0.22276986 -0.043590277 0.06347677 0.2699238
0000c0 78 a4 eb 3d 03 ae 91 be b0 ad 98 bd 35 12 18 be
       0.11505979 -0.28453073 -0.07455003 -0.14850695
0000d0 78 6a 0e bd 78 94 94 be d8 9f a8 3d e8 b6 f3 3d
       -0.034769505 -0.29019523 0.08233613 0.11900121
0000e0 00 2f 13 3b 40 ab 5b 3c 4a 0e 97 be cc 22 80 3d
       0.0022458434 0.013407528 -0.2950309 0.06256637
0000f0 26 b6 81 be ce 58 0e be f4 48 59 3e f0 e4 82 bc
       -0.2533428 -0.13901064 0.21219236 -0.015978307

tfl.pseudo_qconst i1 [64, 128]
000000 ac 5d 1e 15 f2 7a 5c e6 18 e1 64 c7 60 3d b4 c3
       -84 93 30 21 -14 122 92 -26 24 -31 100 -57 96 61 -76 -61
000010 77 31 6b 09 86 e4 5f 47 dc 82 2c 13 bd 9f 24 42
       119 49 107 9 -122 -28 95 71 -36 -126 44 19 -67 -97 36 66
000020 ca 6a 2e 84 df 54 73 cf 42 f5 5d d1 7e f9 31 a1
       -54 106 46 -124 -33 84 115 -49 66 -11 93 -47 126 -7 49 -95
000030 47 52 31 fa 71 6b 3c 58 dd 6e db 38 e2 1f 5f a4
       71 82 49 -6 113 107 60 88 -35 110 -37 56 -30 31 95 -92
000040 0b cd 66 8a a2 37 4e c0 91 3f 5b da 78 eb da 87
       11 -51 102 -118 -94 55 78 -64 -111 63 91 -38 120 -21 -38 -121
000050 3b fc f7 6b 7f b9 e6 77 c2 76 7f 4a ac 19 f8 30
       59 -4 -9 107 127 -71 -26 119 -62 118 127 74 -84 25 -8 48
000060 16 a1 0b a8 56 e1 b2 c6 06 3f b7 6a 84 a8 21 9f
       22 -95 11 -88 86 -31 -78 -58 6 63 -73 106 -124 -88 33 -97
000070 c5 b1 61 c6 f6 3b 72 93 bb 0f 82 32 1e 3b 18 03
       -59 -79 97 -58 -10 59 114 -109 -69 15 -126 50 30 59 24 3
000080 99 1e ca 5e e8 9f 7d 8b 92 51 85 6b 09 19 36 62
       -103 30 -54 94 -24 -97 125 -117 -110 81 -123 107 9 25 54 98
000090 3e 93 5b c1 52 47 b2 61 6e 4e 25 0b 23 12 2c 35
       62 -109 91 -63 82 71 -78 97 110 78 37 11 35 18 44 53
0000a0 7f d8 06 44 67 c2 bc 8c 23 93 8a 0c 69 d8 85 d3
       127 -40 6 68 103 -62 -68 -116 35 -109 -118 12 105 -40 -123 -45
0000b0 74 b7 4d 5b 96 6b c2 91 07 5b 9d 8a 1a b0 d7 a1
       116 -73 77 91 -106 107 -62 -111 7 91 -99 -118 26 -80 -41 -95
0000c0 b3 ef 87 03 ed a1 a2 b5 cf b7 6c ce 7f fd a0 bd
       -77 -17 -121 3 -19 -95 -94 -75 -49 -73 108 -50 127 -3 -96 -67
0000d0 77 df 76 26 5f 41 70 56 5e 3a a1 47 94 75 5a 7b
       119 -33 118 38 95 65 112 86 94 58 -95 71 -108 117 90 123
0000e0 3f a7 02 69 ee 96 c0 31 de 5c 06 21 9a 91 e5 35
       63 -89 2 105 -18 -106 -64 49 -34 92 6 33 -102 -111 -27 53
0000f0 f7 39 e3 c0 07 c9 41 e3 38 d4 cf 64 fd e5 57 52
       -9 57 -29 -64 7 -55 65 -29 56 -44 -49 100 -3 -27 87 82
