assets/ai_models/fitness_model.tflite (tflite, 12884 bytes, 6 tensors)

arith.constant f4 [7, 32]
0	0xbeb91c2f	-0.36154315
1	0x3e324cab	0.17412059
2	0xbf13008f	-0.5742273
3	0x3e6c1fd0	0.2305901
4	0xbf1699de	-0.5882853
5	0xbc9108de	-0.017704424
6	0xbe8fbb7a	-0.2807272
7	0xbf8c51cf	-1.0962466
8	0xbef099b1	-0.46992257
9	0x3d2812ac	0.041033432
10	0x3eb2117a	0.3477896
11	0x3ee52a2f	0.44758746
12	0xbfd2efd1	-1.6479436
13	0xbe96e2bb	-0.29469857
14	0x3eb149a3	0.34626493
15	0xbf95738e	-1.167589
16	0xbfeb0797	-1.8361691
17	0xbfdbf13d	-1.7182995
18	0xbf1aef79	-0.60521656
19	0xbee7dd26	-0.4528591
20	0xbeba68c0	-0.36408043
21	0xbd94e7b7	-0.072707586
22	0x3e293b20	0.1652646
23	0xbfa9d911	-1.3269368
24	0xbfc0a8db	-1.5051531
25	0xbfcdced0	-1.6078739
26	0xbef26f9f	-0.47350785
27	0x3e361c74	0.17784292
28	0x3ef4a308	0.47780633
29	0xbfad8d44	-1.3558736
30	0xbff91d94	-1.9462152
31	0xbe9fcd9c	-0.31211555
32	0x3daf8fb9	0.08572335
33	0x3e8624f0	0.26200056
34	0xbb697006	-0.003561975
35	0x3c8e0011	0.017334016
36	0xbdc8c850	-0.098038316
37	0xbf078911	-0.5294352
38	0xbe14132d	-0.1446044
39	0xbe88f15a	-0.26746637
40	0xbf006d6c	-0.50166965
41	0xbe2412ce	-0.16022798
42	0xbe2c37c3	-0.16818146
43	0x3e482549	0.19545473
44	0xbf1ca2f0	-0.6118612
45	0xbd275d1b	-0.040860277
46	0x3ed20fb9	0.4102762
47	0xbf191b35	-0.5980714
48	0xbf5152fe	-0.8176726
49	0xbf735fb9	-0.95067936
50	0xbf039c7a	-0.5141064
51	0xbcfc5878	-0.030803904
52	0x3d948128	0.07251197
53	0x3dce70fe	0.10080145
54	0xbeb96346	-0.36208552
55	0xbeec9572	-0.46207768
56	0xbf0aedfa	-0.54269373
57	0xbf6aa879	-0.9166332
58	0xbf0e94b8	-0.55695677
59	0x3e794c9d	0.24345632
60	0x3ebc0505	0.3672258
61	0xbf65d6ca	-0.8978087
62	0xbf700852	-0.93762696
63	0xbecddcaf	-0.4020743
64	0xbcd9f1d4	-0.02660457
65	0x3e95bf04	0.29247296
66	0xbe31c01b	-0.17358439
67	0xbe344951	-0.17606093
68	0xbdc55bf6	-0.09636681
69	0x3e77941b	0.24177592
70	0xbe932c93	-0.28744945
71	0xbe986bd1	-0.29769757
72	0xbea41abe	-0.32051653
73	0x3e8fc673	0.28081092
74	0x3ddcbf22	0.10778643
75	0xbdd6ae43	-0.104824565
76	0xbd95b75c	-0.07310364
77	0x3ebbdfee	0.36694282
78	0x3ea11896	0.3146407
79	0x3e86ae5c	0.263049
80	0xbd8da37c	-0.06915948
81	0xbe8211f5	-0.25404325
82	0x3dcd9635	0.10038415
83	0xbe3f0126	-0.18652782
84	0xbdc8d176	-0.098055765
85	0xbe364b39	-0.17802133
86	0x3ec34c8b	0.38144335
87	0x3e06730d	0.13129826
88	0x3d2a0e84	0.04151775
89	0xbedf3029	-0.4359143
90	0xbecef269	-0.4041932
91	0xbe28e5f7	-0.16493975
92	0x3e72fa76	0.23728356
93	0xbe411520	-0.18855715
94	0xbf094585	-0.53621703
95	0xbf95e17b	-1.1709436
96	0x3cc907e5	0.024539897
97	0xbd61204e	-0.05496245
98	0x3e765dfd	0.24059291
99	0x3e98065a	0.29692346
100	0x3e9c4911	0.30524495
101	0x3f18ea4a	0.59732497
102	0xbf9cd79e	-1.2253301
103	0x3f00ed39	0.50361973
104	0xbf7eb8c4	-0.9950068
105	0xbf162e0d	-0.5866402
106	0x3e92b025	0.28650013
107	0xbf500a5f	-0.81265825
108	0x3e9a3e78	0.30125785
109	0x3ec85774	0.3912922
110	0x3e77d98e	0.24204084
111	0x3f34a6ab	0.70566815
112	0x3e3a1942	0.18173698
113	0x3e1a1718	0.15047872
114	0x3e3cde3d	0.18444152
115	0x3d84dfe7	0.064880185
116	0xbf245295	-0.6418851
117	0x3d8cff2c	0.06884608
118	0x3ed300ab	0.41211447
119	0x3e514e6e	0.20440075
120	0x3f3e3f8a	0.743157
121	0x3e372f93	0.17889242
122	0xbf88fc02	-1.0701907
123	0x3ef582fb	0.47951493
124	0xbef78f51	-0.4835153
125	0x3e3621b8	0.177863
126	0x3e2f25cb	0.1710426
127	0xbf2e3ac3	-0.68058413
128	0xbe82aec5	-0.25523964
129	0xbdaf3a8d	-0.085560896
130	0x3e56f73f	0.20992754
131	0xbfbebda9	-1.490163
132	0xbefa7bc3	-0.48922548
133	0x3ebb4410	0.36575365
134	0x3d63349f	0.055470105
135	0x3eb7ea47	0.35920927
136	0x3eb6b2f6	0.3568341
137	0x3ebd15b5	0.36930624
138	0x3e831fd5	0.25610223
139	0xbdcb318d	-0.099215604
140	0x3f03bfac	0.51464343
141	0xbeb06e88	-0.3445933
142	0xbf0fb8ee	-0.56141555
143	0xbe9450aa	-0.28967792
144	0x3ea2e324	0.3181392
145	0x3ec9e4b2	0.39432293
146	0x3f3367ff	0.7008056
147	0xbf67ba25	-0.9051841
148	0x3dfef903	0.12449839
149	0xbd35b856	-0.04436525
150	0x3dfe8f7d	0.12429712
151	0x3e65a822	0.22427419
152	0xbf32a792	-0.6978694
153	0x3d5e33ef	0.054248746
154	0x3d56d991	0.05245358
155	0x3dfa401c	0.12219259
156	0xbfb56bef	-1.4173564
157	0x3e2b1f85	0.16711242
158	0x3eedb4c0	0.46426964
159	0xbedb4cd6	-0.4283206
160	0x3dd5a800	0.10432434
161	0xbf5d046c	-0.8633487
162	0x3dd7f074	0.1054391
163	0xbe58265e	-0.21108386
164	0x3edac672	0.42729527
165	0xbf8e59be	-1.1121137
166	0x3ef6bee2	0.48192507
167	0xbfa9ae83	-1.3256382
168	0x3edde61e	0.43339628
169	0xbe4033f3	-0.18769817
170	0x3eaf8662	0.34282213
171	0xbeae1f73	-0.3400837
172	0xbe94c547	-0.2905676
173	0xbfb120f0	-1.3838177
174	0xbfe186e1	-1.7619287
175	0xbf808128	-1.0039415
176	0x3dc32f66	0.09530525
177	0x3eb33de7	0.35008165
178	0xbfb3c483	-1.4044346
179	0x3e34f5d9	0.17671908
180	0x3ed94b85	0.4244043
181	0xbecc4d55	-0.3990275
182	0xbfa1349f	-1.2594184
183	0x3e962d0a	0.29331237
184	0xbe381fa2	-0.17980817
185	0x3e96c432	0.2944656
186	0xbdb06eb2	-0.086148635
187	0xbf894bec	-1.0726295
188	0xbe93d6db	-0.2887486
189	0x3e047efc	0.12939066
190	0xbe8dac89	-0.27670696
191	0xbd1dabad	-0.0384938
192	0xbf1ba75e	-0.6080226
193	0xbf29175e	-0.6605128
194	0xbf067741	-0.5252572
195	0xbe093306	-0.1339837
196	0x3f0aca2e	0.5421475
197	0xbe6f09f1	-0.23343636
198	0xbe399d55	-0.18126424
199	0x3dbd5cbe	0.09246205
200	0x3ecdadc1	0.40171626
201	0xbe9a1c4a	-0.30099708
202	0xbf310178	-0.69142866
203	0xbfca32ff	-1.5796813
204	0xbf020516	-0.5078901
205	0x3f136159	0.57570416
206	0x3eceed8b	0.40415606
207	0x3ef93807	0.48675558
208	0xbd19ca3d	-0.037546385
209	0x3d561e09	0.052274738
210	0xbe0ae142	-0.13562492
211	0x3eb81dae	0.35960144
212	0x3e5e0a4e	0.21683618
213	0x3bc91ed3	0.0061377077
214	0xbe3bf397	-0.18354641
215	0xbd99acc4	-0.075036556
216	0xbde099f9	-0.10966868
217	0x3ee7d2df	0.4527807
218	0x3a50dc7b	0.00079674245
219	0x3e241602	0.1602402
220	0x3e117f01	0.14208604
221	0x3ef147a9	0.47124985
222	0x3b95b034	0.004568124
223	0x3efc6ad5	0.49300256

arith.constant1 f4 [32, 64]
0	0x3eb7cf17	0.35900185
1	0x3e57f93b	0.21091168
2	0xbdd5f5c1	-0.104472645
3	0xbe4721a4	-0.19446427
4	0x3e458762	0.19289926
5	0xbe55c9ad	-0.20877714
6	0xbec51d0a	-0.38498718
7	0x3dd1df65	0.10247687
8	0xbe91d256	-0.28480786
9	0xbcabe4ca	-0.020983119
10	0xbd830f7b	-0.06399437
11	0x3e626e87	0.22112475
12	0x3ed6a155	0.41919962
13	0xbe1e0eb4	-0.15435296
14	0x3e953218	0.2913978
15	0x3e263c49	0.16233934
16	0xbda36321	-0.07977892
17	0x3e074fc0	0.13214016
18	0xbd2bdbdf	-0.041957732
19	0x3e60fb5a	0.21970883
20	0x3e985e09	0.29759243
21	0xbc61ef0c	-0.013789903
22	0xbde89a47	-0.11357551
23	0xbd4629dd	-0.048379768
24	0xbe542b58	-0.2071966
25	0xbe88e926	-0.26740378
26	0x3bcec52f	0.006310127
27	0xbd9024ab	-0.07038244
28	0x3e562e81	0.20916177
29	0xbe11ece9	-0.1425053
30	0x3e6873f5	0.22700484
31	0x3d6f6391	0.058444563
32	0x3d313d9c	0.043271646
33	0x3e446856	0.19180426
34	0x3d960591	0.073252805
35	0xbda4dbb8	-0.080497205
36	0x3e866acf	0.26253363
37	0x3e6d8473	0.23195057
38	0x3e5a8a29	0.21341766
39	0x3bb1c1aa	0.005424698
40	0xbeae9a28	-0.34101987
41	0xbe852d94	-0.26011336
42	0x3ec201f6	0.3789212
43	0xbd59f5b8	-0.05321285
44	0x3e04ea29	0.1297995
45	0xbe0f9b83	-0.14024167
46	0x3d26fbe0	0.04076755
47	0xbe45dea2	-0.19323209
48	0xbdf94f79	-0.12173361
49	0xbde45aec	-0.111501545
50	0x3e2f3dad	0.17113371
51	0xbd4de5e4	-0.05026807
52	0xbe1db9c7	-0.154029
53	0x3e239f58	0.15978754
54	0x3e12aa4d	0.14322777
55	0xbde8e52c	-0.11371836
56	0xbe0b17a7	-0.13583241
57	0x3dc9ad81	0.09847546
58	0x3deb4c7b	0.11489197
59	0xbec6982a	-0.38787967
60	0xbe51854f	-0.2046101
61	0x3c933fe6	0.017974805
62	0xbe20a5a5	-0.15688188
63	0xbe7ddf75	-0.24792273
64	0x3e25a259	0.16175212
65	0xbe2cc22e	-0.16870949
66	0x3e795896	0.24350199
67	0x3e2261b8	0.15857589
68	0x3e205b74	0.15659887
69	0x3e54b64f	0.2077267
70	0xbedad705	-0.42742172
71	0x3e880d60	0.26572704
72	0x3daf5ebc	0.08562991
73	0x3e45b595	0.1930755
74	0xbe29b85d	-0.16574235
75	0x3dbefa53	0.09325089
76	0x3e91d86b	0.28485426
77	0x3ebdef7b	0.37096772
78	0x3e776f93	0.24163656
79	0x3e3af110	0.1825602
80	0x3df3117b	0.118685685
81	0xbcec07ae	-0.028812256
82	0x3e5dcf29	0.21661057
83	0xbdadc7dc	-0.08485386
84	0x3e8040d5	0.25049463
85	0x3e1af557	0.15132652
86	0xbe26e1e0	-0.16297102
87	0x3e78621a	0.24256173
88	0xbdc61453	-0.09671845
89	0x3e8d88a3	0.27643308
90	0x3db6c3be	0.089240536
91	0xbec914fe	-0.39273828
92	0x3e9deba4	0.30843842
93	0xbecc4b59	-0.39901236
94	0xbdf9913a	-0.12185903
95	0xbd9c29b2	-0.0762514
96	0xbe12a08f	-0.1431906
97	0x3d9b12e7	0.07571965
98	0x3e06ce26	0.13164577
99	0x3c9d922d	0.019234741
100	0x3ec7c021	0.3901377
101	0x3e101edb	0.1407427
102	0x3f07fdad	0.53121454
103	0xbee25520	-0.4420557
104	0xbb0f2e5c	-0.00218477
105	0x3ed0a275	0.40748945
106	0x3d8f89f2	0.07008733
107	0xbcc8dfcd	-0.024520779
108	0x3ec31f16	0.38109654
109	0x3df27fb5	0.118407644
110	0x3c1e9940	0.009680092
111	0x3e24de00	0.16100311
112	0xbe985c02	-0.29757696
113	0xbd3649ce	-0.04450398
114	0x3e68d483	0.22737317
115	0xbee6b4ab	-0.45059714
116	0x3d81630d	0.063177206
117	0xbd1923fa	-0.037387826
118	0xbd601df0	-0.05471605
119	0xbe8a4bf1	-0.27011064
120	0x3e0cf81b	0.1376652
121	0x3ed56643	0.41679582
122	0xbe2bf112	-0.1679118
123	0x3e60068e	0.218775
124	0x3d438ed2	0.047743626
125	0x3e12c5a4	0.14333206
126	0xbe6c514c	-0.23077887
127	0xbe823c95	-0.25436845
128	0x3dce0abc	0.10060641
129	0xbd0a5db7	-0.03378078
130	0xbd5c321a	-0.053758718
131	0x3de7b119	0.113130756
132	0xbe95467f	-0.29155347
133	0x3eaa5e01	0.33274844
134	0xbdf8cb40	-0.12148142
135	0x3e957bd4	0.29196036
136	0x3d4f0269	0.050539408
137	0x3e6612be	0.22468087
138	0x3e5414b8	0.20711029
139	0x3ed0668a	0.4070323
140	0x3e1b3a24	0.15158898
141	0x3d951939	0.072802015
142	0x3dfcc44f	0.123421304
143	0x3e905f1e	0.2819757
144	0xbe0c8112	-0.13721111
145	0x3e76cfd2	0.24102715
146	0x3eb5bc2c	0.35495126
147	0x3f00d3cc	0.50323176
148	0x3e86cb31	0.26326898
149	0xbdc31536	-0.0952553
150	0x3e87386d	0.26410237
151	0xbea32f26	-0.3187191
152	0xbf0e5ddd	-0.55611974
153	0x3d8552a3	0.06509902
154	0xbe060576	-0.1308802
155	0x3de01ef8	0.10943407
156	0x3e3a5f53	0.18200426
157	0xbec8c969	-0.39216164
158	0xbd219ff1	-0.039459173
159	0xbe67f390	-0.22651505
160	0xbeab4eec	-0.3345865
161	0x3e424d85	0.18974884
162	0xbe8a133d	-0.26967803
163	0x3e71c69b	0.23610918
164	0x3e905fa0	0.28197956
165	0xbe09bd90	-0.13451219
166	0xbab7e2c6	-0.0014029376
167	0xbe20101d	-0.15631147
168	0x3dac65a4	0.08417824
169	0xbe8962d6	-0.26833218
170	0x3d856e35	0.06515161
171	0xbdde1e2f	-0.10845601
172	0x3e25ed02	0.16203693
173	0xbe10b3b8	-0.14131057
174	0xbf1a6334	-0.6030762
175	0xbd7c81fa	-0.061647393
176	0xbecffe34	-0.4062363
177	0x3eabe190	0.33570528
178	0x3e6f1731	0.2334869
179	0xbef204fe	-0.47269434
180	0xbe181bf1	-0.14854409
181	0xbe08f000	-0.13372803
182	0x3e0af496	0.13569865
183	0x3dd5b9fe	0.10435866
184	0xbdf348f9	-0.11879153
185	0x3c3cb65a	0.011518085
186	0x3dd86594	0.105662495
187	0xbe9de20f	-0.30836532
188	0xbea96f2b	-0.33092627
189	0xbccf6836	-0.025318246
190	0xbd652abd	-0.05594896
191	0xbcc99bd4	-0.024610437
192	0x3e3c6c52	0.18400696
193	0xbeef4baa	-0.46737415
194	0xbcb6efe6	-0.02233119
195	0x3e43ba76	0.19114098
196	0x3db9759a	0.09055634
197	0x3d364211	0.0444966
198	0xbeaef13d	-0.34168425
199	0xbd51a9b7	-0.051187243
200	0x3e86096a	0.26179057
201	0x3df22d08	0.11824995
202	0xbef867dc	-0.48516738
203	0x3c87c56d	0.016573632
204	0xbe76df1a	-0.24108544
205	0xbd771fb0	-0.060332954
206	0xbe3d01f9	-0.18457784
207	0x3e8f9691	0.2804456
208	0x3a13936a	0.00056295714
209	0xbd05f8bf	-0.032707926
210	0x3deaae2e	0.114590034
211	0x3d02c5f5	0.031927068
212	0x3e5d28e9	0.21597637
213	0x3de9885f	0.11402964
214	0xbd9274e4	-0.07151201
215	0x3e17e70d	0.14834233
216	0xbe15a9e5	-0.14615591
217	0x3e53e2db	0.20692007
218	0x3e99563a	0.29948598
219	0x3e7784ed	0.24171801
220	0x3e2174de	0.15767238
221	0xbec58dc9	-0.38584736
222	0xbdf88f8e	-0.12136756
223	0x3e7391d8	0.23786104
224	0xbdfb76ce	-0.122785196
225	0x3e94e0d0	0.29077768
226	0x3e587a5f	0.21140431
227	0x3e3562dc	0.17713493
228	0x3ebd09a7	0.36921427
229	0xbeeca349	-0.46218327
230	0x3e9d4a90	0.3072095
231	0xbcb9ee93	-0.022696769
232	0xbdf83a26	-0.12120466
233	0x3eb83e50	0.3598504
234	0xbe809d0a	-0.2511981
235	0xbea8502d	-0.3287367
236	0xbe0b2555	-0.1358846
237	0x3e05ee97	0.13079296
238	0xbd29c685	-0.04144909
239	0xbe3c64f5	-0.18397887
240	0x3dcb7c1c	0.09935781
241	0x3e49d26a	0.19709173
242	0x3da7596a	0.08171351
243	0xbf7fe427	-0.9995751
244	0xbe748304	-0.23878103
245	0xbc506cc3	-0.012721243
246	0x3e669130	0.22516322
247	0xbf3e9b23	-0.7445547
248	0xbe34f3d9	-0.17671145
249	0x3d1ccdc9	0.03828219
250	0xbf2062fb	-0.6265103
251	0x3e3c9812	0.18417385
252	0xbf092822	-0.5357686
253	0x3dc5a13f	0.09649896
254	0xbede04c9	-0.43363026
255	0xbf8afabe	-1.085777

arith.constant2 f4 [7]
0	0xbe3cbfa2	-0.18432477
1	0xbdcb306a	-0.099213436
2	0xbdd5e6d1	-0.10444415
3	0x3d91034a	0.070807055
4	0x3e128b3d	0.14310928
5	0xbb85681c	-0.0040712487
6	0x3d06a8a1	0.03287566

sequential_1/dense_1_2/BiasAdd/ReadVariableOp f4 [32]
0	0x3d0deea6	0.03465142
1	0x3d83e733	0.06440582
2	0x3de9e951	0.11421455
3	0x3c4cb564	0.012494419
4	0xbcac4d35	-0.021032909
5	0x3e39a80c	0.18130511
6	0x3dcc584c	0.09977779
7	0x3ea1f7de	0.3163442
8	0x3e32c328	0.17457259
9	0x3ce09f02	0.02741957
10	0x3d7c802e	0.06164568
11	0xbe969e29	-0.29417542
12	0x3eb77aa0	0.35835743
13	0x3d358c7d	0.044323433
14	0x3e41c4f7	0.18922792
15	0x3e2d47f8	0.16921985
16	0x3eeb6d09	0.45981625
17	0x3ec918e1	0.39276794
18	0x3e0406a1	0.12893154
19	0xbe3fbfea	-0.18725553
20	0x3b1923d5	0.0023367305
21	0x3de0e952	0.10982002
22	0x3e4474e8	0.19185221
23	0x3e695202	0.2278519
24	0x3e71a1a3	0.23596816
25	0x3ea9f0b6	0.3319146
26	0x3e680408	0.22657788
27	0x3e731dcf	0.2374184
28	0xbe1e6d37	-0.1547135
29	0x3e94f222	0.29090983
30	0x3ec1b15d	0.3783063
31	0x3d82a871	0.06379784

sequential_1/dense_1/BiasAdd/ReadVariableOp f4 [64]
0	0x3e9aaee3	0.30211553
1	0xbe0cafd1	-0.13738944
2	0x3cb455bb	0.022013536
3	0x3eca03c9	0.39456013
4	0xbe223fa9	-0.15844597
5	0x3ecc9142	0.39954573
6	0x3e4d6355	0.20057423
7	0x3ec6e680	0.38847733
8	0x3e6d85ae	0.23195526
9	0x3e5da929	0.2164656
10	0x3e55bdeb	0.20873229
11	0x3eac5957	0.3366191
12	0x3f04043d	0.5156897
13	0x3ea55973	0.32294807
14	0x3ef1913f	0.47181126
15	0x3eb0a65c	0.34501922
16	0xbe3bb0ec	-0.18329209
17	0x3eea8c69	0.4581025
18	0x3e5c1c99	0.21495284
19	0x3ee8499c	0.4536866
20	0x3e976064	0.29565728
21	0x3e179550	0.14803052
22	0x3f0290fd	0.51002485
23	0xbef2f977	-0.47455952
24	0x3db8e54b	0.09028109
25	0x3e985234	0.29750216
26	0x3e9b6ef1	0.3035808
27	0x3f0b4afd	0.544113
28	0x3e5f4865	0.2180496
29	0xbd00bdfb	-0.03143118
30	0x3eb7208c	0.3576702
31	0xb9eff624	-0.0004576902
32	0x3f1d6360	0.6147976
33	0x3ec5a0e5	0.38599315
34	0xbdd885a2	-0.105723634
35	0x3e781bd3	0.24229364
36	0x3e87a50f	0.26493117
37	0x3e603b66	0.21897659
38	0x3ea856c0	0.32878685
39	0x3e5a5b98	0.21324003
40	0x3e3c95aa	0.18416467
41	0xbcbbde22	-0.02293307
42	0x3eea0f1a	0.45714647
43	0x3e4fac32	0.20280531
44	0xbd388342	-0.045047052
45	0x3ea803f4	0.32815516
46	0xbef5814a	-0.47950202
47	0x3d6acb09	0.057322536
48	0x3e85ff6a	0.26171428
49	0x3e9e966d	0.3097414
50	0x3e49e75c	0.19717163
51	0xbd103517	-0.03520688
52	0x3efb9f8f	0.4914517
53	0x3eb617ac	0.35564935
54	0x3f184bd7	0.5949072
55	0xbe01c76b	-0.12673728
56	0x3efb1dca	0.49046165
57	0xbdd5de05	-0.104427375
58	0x3c6c5769	0.014425137
59	0x3e162f71	0.14666535
60	0x3e3b46d6	0.1828874
61	0xbdaf3b8d	-0.0855628
62	0x3e97d362	0.2965346
63	0x3ea5c3ff	0.32376096

sequential_1/dense_1/MatMul f4 [64, 5]
0	0x3ea215ec	0.3165735
1	0xbf270871	-0.65247256
2	0xbd0218e2	-0.03176201
3	0x3d254850	0.040352166
4	0xbe28b51c	-0.16475338
5	0x3ed01239	0.40638903
6	0xbe304aa0	-0.17215967
7	0x3ebbcb4c	0.3667854
8	0xbd6b5059	-0.057449672
9	0xbd970b1c	-0.07375166
10	0xbee45748	-0.4459784
11	0xbe2af045	-0.16693218
12	0xbec02e9c	-0.3753556
13	0x3f31d355	0.6946309
14	0x3ea1b853	0.3158594
15	0x3de8c5ad	0.11365829
16	0xbd680c56	-0.05665239
17	0xbe9cea0a	-0.30647308
18	0x3e591894	0.21200782
19	0xbe1b01db	-0.15137427
20	0xbef8e591	-0.48612645
21	0xbe1113e6	-0.14167747
22	0xbdc6a310	-0.096990705
23	0x3e0d5593	0.13802175
24	0xbe8ed915	-0.27899995
25	0xbea98a9c	-0.33113563
26	0x3e318de8	0.17339289
27	0xbe3f6598	-0.18691099
28	0x3cbea41a	0.02327161
29	0x3e0eaa16	0.1393207
30	0x3e80bd24	0.25144303
31	0x3e85f5c4	0.26164067
32	0x3eed34d4	0.46329367
33	0x3deba6da	0.11506434
34	0x3e87d76e	0.26531547
35	0xbecff0c8	-0.4061339
36	0xbf179ad0	-0.592206
37	0xbeb0c99e	-0.34528822
38	0xbe8585af	-0.26078555
39	0xbd4ab90d	-0.049492884
40	0xbd256260	-0.04037702
41	0xbeb01d4d	-0.34397355
42	0x3e52431c	0.20533413
43	0x3eaa7a2f	0.33296344
44	0xbe8b9591	-0.27262548
45	0x3caaae1c	0.020834975
46	0x3f01b12b	0.5066096
47	0xbe88cbf8	-0.26718116
48	0xbe4bd940	-0.19907093
49	0xbc176459	-0.009240233
50	0x3eb8cea4	0.36095154
51	0xbe5cc937	-0.21561132
52	0x3f04b9ff	0.5184631
53	0xbec95c84	-0.39328396
54	0x3dea7be3	0.11449411
55	0xbdeefeca	-0.11669691
56	0xbf34b829	-0.70593506
57	0x3eb42323	0.35183057
58	0xbea68127	-0.3252041
59	0x3d90bf90	0.07067788
60	0x3e5de40c	0.21669024
61	0xbf203501	-0.6258088
62	0x3e1e0cb9	0.15434541
63	0xbe4e9ad4	-0.2017625
64	0xbe2dc1f6	-0.16968521
65	0x3e07c49d	0.13258596
66	0xbefe61e8	-0.49684072
67	0xbdb10612	-0.08643736
68	0x3c8c4e10	0.017127067
69	0xbe8d8827	-0.27642938
70	0x3ee37876	0.44427842
71	0xbf56605f	-0.837408
72	0x3e62cdda	0.22148839
73	0x3db7b4cc	0.08970031
74	0x3da55b4c	0.08074054
75	0xbea40e1d	-0.32042018
76	0xbf10809f	-0.5644626
77	0xbec9db7e	-0.39425272
78	0x3e09e417	0.13465916
79	0xbb458656	-0.0030139885
80	0xbf3378f0	-0.7010641
81	0xbdc894de	-0.09794019
82	0xbf2f7ae9	-0.6854692
83	0x3e6f2b60	0.2335639
84	0x3e48dc93	0.19615392
85	0x3eb53478	0.35391593
86	0xbf34fb53	-0.7069599
87	0xbe281fd2	-0.16418388
88	0xbed596c8	-0.417166
89	0xbdf48381	-0.11939145
90	0xbe25a75d	-0.16177125
91	0xbec5cd7a	-0.3863333
92	0x3ea8e423	0.32986555
93	0xbe5df7c2	-0.21676543
94	0x3e099cc8	0.13438714
95	0x3df39da9	0.11895306
96	0xbe9fced9	-0.312125
97	0xbdde85fa	-0.10865398
98	0xbe3ff3d8	-0.18745363
99	0x3e68153b	0.22664349
100	0xbe6819f8	-0.22666156
101	0x3d91457c	0.07093331
102	0xbe286838	-0.16446006
103	0xbe83e303	-0.25759134
104	0xbec53047	-0.38513395
105	0xbe70e0cd	-0.23523255
106	0xbefc66fd	-0.49297324
107	0xbe704954	-0.23465472
108	0x3e81ed10	0.25376177
109	0xbdf6a46e	-0.12043081
110	0x3ebd608a	0.36987716
111	0xbf4a6c03	-0.7907106
112	0x3e7d20ed	0.24719591
113	0x3cb53b0d	0.022122884
114	0xbdee68f9	-0.11641116
115	0xbf0578aa	-0.52137244
116	0xbc9bf744	-0.019038804
117	0xbf19784d	-0.5994919
118	0x3d3fa86e	0.046791486
119	0xbbe1711b	-0.0068799383
120	0xbdec7b96	-0.1154701
121	0x3e2d3c81	0.16917612
122	0x3ee217eb	0.44158873
123	0x3d850125	0.06494359
124	0xbe5dce44	-0.21660715
125	0xbf089412	-0.5335094
126	0xbe0d7804	-0.13815314
127	0xbedf8714	-0.43657744
128	0x3e9e652e	0.3093657
129	0xbeb318e6	-0.34979934
130	0xbf2dcaf3	-0.678878
131	0x3ed44ebb	0.41466317
132	0xbf13de32	-0.5776092
133	0x3ec4fbf9	0.3847349
134	0x3a4c91ea	0.00078037253
135	0xbd040e6f	-0.032240327
136	0x3f4a025e	0.7890986
137	0x3db8843c	0.09009597
138	0x3d3350b8	0.04377815
139	0xbe0a4a06	-0.135048
140	0xbd7b1b58	-0.061305374
141	0xbd997ed9	-0.074948974
142	0xbe088b6b	-0.13334434
143	0xbef201c6	-0.47266978
144	0x3e8e9793	0.27850017
145	0x3f0db036	0.55347
146	0x3e46a9f4	0.1940077
147	0x3eddb8f5	0.43305174
148	0xbe3d492c	-0.18484944
149	0xbdd54012	-0.10412611
150	0xbdd71c39	-0.1050343
151	0x3f235aea	0.638106
152	0x3d5c0d9e	0.053723924
153	0xbe6935f0	-0.22774482
154	0x3e1025fe	0.14076993
155	0xbe3f2f4f	-0.1867039
156	0xbc9b4e25	-0.01895816
157	0xbe751100	-0.23932266
158	0x3e12bf5b	0.14330809
159	0xbeb2590a	-0.34833556
160	0xbdba9b7b	-0.09111687
161	0x3eaaf5cd	0.33390656
162	0x3e6ca542	0.23109916
163	0x3e40767e	0.18795201
164	0x3e0384e2	0.1284366
165	0xbe5fa4cc	-0.21840209
166	0xbe57a5cc	-0.2105934
167	0x3e619bd6	0.22032103
168	0xbce365c2	-0.027758483
169	0x3ebb368e	0.3656506
170	0xbf1848a9	-0.5948587
171	0x3a0d7abd	0.00053970126
172	0xbef12a2c	-0.47102487
173	0x3e9c7525	0.30558124
174	0x3c93cf16	0.018043082
175	0x3d1ef0bf	0.038803812
176	0xbf0b31e6	-0.54373014
177	0x3dd82217	0.10553377
178	0x3d390b9a	0.04517708
179	0x3d550cf7	0.052014317
180	0xbf0a8e0e	-0.5412301
181	0x3e5d0c08	0.21586621
182	0xbe87b177	-0.26502582
183	0xbdd765e8	-0.10517484
184	0x3e98bed3	0.29833087
185	0x3edda6da	0.4329136
186	0x3e3630c2	0.17792037
187	0x3ec72a38	0.38899398
188	0xbeea8f63	-0.4581252
189	0x3e61ad76	0.22038826
190	0x3c711210	0.014713779
191	0xbf032df1	-0.51241976
192	0xbebd6ba0	-0.36996174
193	0x3e15dcd0	0.14635015
194	0x3e78afc8	0.24285805
195	0xbdef4144	-0.1168237
196	0x3f1582ef	0.58402914
197	0x3de193df	0.11014532
198	0x3e295e76	0.1653994
199	0x3d163111	0.036667887
200	0xbe77da92	-0.24204472
201	0xbddc7c09	-0.10765845
202	0x3e008d90	0.12554002
203	0x3ebca582	0.36845022
204	0x3e0127c4	0.12612826
205	0xbf1eaef3	-0.619857
206	0x3cbaa427	0.022783352
207	0xbf2215f4	-0.6331475
208	0x3ea8fcc5	0.33005348
209	0xbde593d8	-0.112098396
210	0xbc878504	-0.016542919
211	0x3dc4e6eb	0.096143566
212	0x3cb86b7f	0.022512196
213	0xbec528b6	-0.38507622
214	0xbd7c84fc	-0.06165026
215	0x3f2b0a25	0.66812354
216	0xbdcdd28b	-0.100499235
217	0x3cfdb041	0.030967833
218	0xbf0ac8ee	-0.54212844
219	0xbe22bc46	-0.15892133
220	0xbef50e01	-0.47862247
221	0x3ee5565c	0.4479245
222	0xbf074ba0	-0.5284977
223	0xbe24678b	-0.16055124
224	0xbdd554b9	-0.1041655
225	0x3df97dce	0.121821985
226	0x3f1344e9	0.57527024
227	0xbdbc40b9	-0.09192032
228	0xbdf457f8	-0.11930841
229	0xbe9641c9	-0.29347065
230	0xbe9e48cd	-0.30914918
231	0x3eaedc1b	0.34152302
232	0xbf1d23f3	-0.6138298
233	0x3ece9509	0.4034808
234	0x3d913eb5	0.070920385
235	0x3b83b585	0.0040194415
236	0x3ec230cf	0.37927863
237	0xbe1b65bf	-0.15175532
238	0xbe30f438	-0.17280662
239	0xbe817f92	-0.2529264
240	0xbe881e20	-0.26585484
241	0x3ee3c31f	0.44484803
242	0x3e64935a	0.22321835
243	0x3eb5c3ea	0.35501033
244	0x3e8dfbc4	0.27731144
245	0x3df75c4b	0.1207815
246	0x3f343f60	0.704092
247	0xbe98d9ae	-0.29853576
248	0xbe41a948	-0.18912232
249	0x3d1ddeba	0.038542487
250	0xbe82e308	-0.25563836
251	0xbd8aa750	-0.067701936
252	0xbedc2b43	-0.43001756
253	0xbd696879	-0.0569844
254	0xbe44872d	-0.1919219
255	0x3f0e6c8f	0.556344
