assets/ai_models/fitness_model_v1_exercise_plan.tflite (tflite, 16160 bytes, 3 tensors)

arith.constant f4 [128, 7]
0	0xbdb95eab	-0.090512596
1	0x3de24292	0.110478535
2	0x3cacd520	0.02109772
3	0x3dce504a	0.10073908
4	0x3d24371c	0.04009162
5	0xbde5bd1f	-0.112177126
6	0xbdb5203e	-0.0884404
7	0xbd9ea44a	-0.077461794
8	0x3e5005c5	0.20314701
9	0xbdf982d2	-0.12183155
10	0xbe38d523	-0.18050055
11	0xbd8be028	-0.06829864
12	0xbe26e84a	-0.16299549
13	0xbde12b80	-0.10994625
14	0xbdee5deb	-0.11639007
15	0xbe051725	-0.1299711
16	0x3d2723fc	0.0408058
17	0x3c1d1eb0	0.009589836
18	0xbe2e039d	-0.16993566
19	0x3e1d7b53	0.15379076
20	0xbe47b39f	-0.19502114
21	0x3ca24d10	0.019812137
22	0x3e002617	0.1251453
23	0x3cf163f8	0.029466614
24	0x3cb59560	0.022165954
25	0xbe065a80	-0.1312046
26	0x3dc3d4be	0.09562062
27	0x3dda221a	0.106510356
28	0x3df452aa	0.119298294
29	0xbd481644	-0.04884936
30	0xbd620434	-0.05517979
31	0xbd276520	-0.040867925
32	0x3dec564e	0.11539899
33	0x3e3b01a5	0.18262346
34	0xbe4b678e	-0.19863722
35	0xbe39567c	-0.18099397
36	0x3e1f8ab1	0.1558025
37	0x3b6bb8c0	0.0035968274
38	0x3d58635c	0.05282913
39	0xbe0579ce	-0.13034746
40	0xbdd4f646	-0.103985354
41	0xbe56a889	-0.20962729
42	0x3e4b95eb	0.19881408
43	0x3e09a30f	0.13441108
44	0xbe4b4312	-0.19849804
45	0xbe14cee1	-0.14532043
46	0x3ce2f9b0	0.02770695
47	0xbe32ae4f	-0.17449306
48	0xbd5fccc8	-0.054638654
49	0x3d63e0cc	0.055634305
50	0xbe0757ff	-0.13217162
51	0xbd5e1754	-0.054221466
52	0x3d8f43c2	0.06995346
53	0x3d29966c	0.04140322
54	0x3a1db500	0.0006016046
55	0xbe079712	-0.13241223
56	0xbd955692	-0.072919026
57	0xbd71eac8	-0.059061795
58	0xbe2d1254	-0.16901523
59	0xbcebd578	-0.028788313
60	0x3e1e310d	0.15448399
61	0xbc137960	-0.009001106
62	0x3dc0659a	0.09394379
63	0x3cd8fe28	0.026488379
64	0xbd7cd214	-0.061723784
65	0xbc62ae20	-0.01383546
66	0xbdfc8879	-0.123307176
67	0x3da0b9ee	0.07847963
68	0x3e2f6ce1	0.17131378
69	0x3d1669b0	0.036721885
70	0xbd1dadcc	-0.038495824
71	0xbced8300	-0.02899313
72	0xbe2b31a3	-0.16718154
73	0xbe3f804a	-0.18701282
74	0x3dfb298a	0.12263782
75	0xbdb04d1c	-0.086084574
76	0xbd922dde	-0.07137655
77	0x3e300afb	0.17191689
78	0x3e2f46d3	0.17116861
79	0xbe0b86b1	-0.136256
80	0x3e3e8295	0.186045
81	0x3dafed42	0.08590175
82	0x3d74fcd4	0.05981143
83	0xbd219b8c	-0.03945498
84	0xbe15ee4e	-0.14641687
85	0x3e308db9	0.17241563
86	0xbdaaee78	-0.083462656
87	0x3e2bb721	0.16769077
88	0xbd4df154	-0.050278977
89	0x3e138311	0.14405467
90	0xbd94f3a4	-0.07273033
91	0x3e2641dd	0.16236062
92	0x3b6ccc80	0.0036132634
93	0x3e412e27	0.18865262
94	0x3d2a251c	0.041539297
95	0xbd5b4b70	-0.05353874
96	0xbe1c0fe6	-0.1524044
97	0xb9d53800	-0.0004066825
98	0x3e443511	0.19160868
99	0xbda289a6	-0.079364106
100	0x3d23d8ac	0.040001556
101	0xbdf3c936	-0.11903612
102	0x3e490459	0.19630565
103	0xbb8b3aa0	-0.004248932
104	0xbdc14b74	-0.0943822
105	0x3e0827cf	0.13296436
106	0xbe4204f6	-0.18947205
107	0xbe24379c	-0.16036838
108	0xbddee288	-0.10883051
109	0x3dc035da	0.09385271
110	0x3d9c4de2	0.076320425
111	0x3e1f82e3	0.15577273
112	0xbd71e5d4	-0.05905707
113	0xbde917a1	-0.1138146
114	0xbda120fc	-0.078676194
115	0xbe557fd2	-0.20849541
116	0xbc03d7d0	-0.008047059
117	0xbe39f70d	-0.18160649
118	0x3ceac9b8	0.02866064
119	0xbd7dc95c	-0.06195961
120	0x3d45c73c	0.048285708
121	0xbd8d294c	-0.068926424
122	0x3db9ae3a	0.09066434
123	0xbe1c1eb9	-0.15246095
124	0x3d676654	0.056494072
125	0x3bb35d80	0.0054737926
126	0x3c427020	0.011867553
127	0x3d8a2c16	0.0674669
128	0x3d05f450	0.032703698
129	0x3e1de10b	0.15417878
130	0xbdd37a24	-0.10326031
131	0xbe057cf2	-0.13035944
132	0x3da7c312	0.081915036
133	0x3e2957cd	0.165374
134	0xbe0a0494	-0.13478309
135	0x3dd76ece	0.10519181
136	0x3e436777	0.19082437
137	0xbe1cf076	-0.15326104
138	0x3cda35c0	0.026636958
139	0xbe0daf7f	-0.13836478
140	0xbd7c53a4	-0.061603203
141	0xbc312cc0	-0.010813892
142	0xbce85748	-0.028361931
143	0xbe357592	-0.17720631
144	0xbe0b9e87	-0.13634692
145	0xbe20b6ec	-0.15694779
146	0xbe21ef10	-0.15813851
147	0x3e4188b5	0.18899806
148	0x3d77ee54	0.06053002
149	0x3d60d7d4	0.05489333
150	0xbd485490	-0.04890877
151	0x3e0c3c1d	0.13694806
152	0xbc9999e0	-0.018750131
153	0xbe035aca	-0.12827602
154	0x3d879582	0.06620313
155	0xbdea3141	-0.11435176
156	0xbdb62b16	-0.08894937
157	0x3e5264a1	0.205462
158	0xbde1bb3a	-0.11022039
159	0xbcd58cf0	-0.02606818
160	0xbc823c38	-0.015897855
161	0x3e28a8d1	0.16470648
162	0xbd38f80c	-0.04515843
163	0xbce5e940	-0.028065324
164	0xbdf3d88c	-0.119065374
165	0x3e235947	0.15952025
166	0x3dfb626e	0.12274633
167	0x3e32e349	0.17469515
168	0xbe2359b9	-0.15952195
169	0x3e54347b	0.20723145
170	0x3dd1eb0e	0.10249911
171	0x3e236f8f	0.15960525
172	0xbe528113	-0.2055705
173	0x3b1a0780	0.0023503006
174	0x3e4311c5	0.19049747
175	0x3e12df61	0.14343025
176	0xbdfce973	-0.123492144
177	0xbe45bfcc	-0.19311446
178	0x3d373434	0.04472752
179	0xbe0e01d6	-0.13867888
180	0xbe4cd2ba	-0.20002261
181	0xbdaf1e7a	-0.08550735
182	0x3df88e62	0.12136532
183	0x3dd20d86	0.10256486
184	0xbe3684f2	-0.17824152
185	0x3d887376	0.066626474
186	0xbde7e17d	-0.11322305
187	0x3cb29438	0.021799192
188	0xbd46a654	-0.048498467
189	0x3e4000eb	0.1875035
190	0x3cf682a0	0.030091584
191	0x3d66672c	0.056250736
192	0xbe03b814	-0.12863189
193	0xbe23b2f0	-0.15986228
194	0xbe4dbcaf	-0.20091508
195	0xbdb6c000	-0.0892334
196	0x3dbe4d66	0.09292106
197	0x3da0b5ca	0.078471735
198	0x3e0f9651	0.14022185
199	0x3e4e277d	0.20132251
200	0xbc74eda0	-0.014949232
201	0xbd803504	-0.06260112
202	0x3d466a24	0.048441067
203	0x3e13be29	0.14428009
204	0xbe488e7a	-0.195856
205	0x3dd88072	0.10571374
206	0x3cbbdc90	0.02293232
207	0xbdfec0b5	-0.124391
208	0xbe343e82	-0.1760197
209	0xbcb72d68	-0.022360519
210	0xbda1360c	-0.07871637
211	0xbd8d7740	-0.06907511
212	0xbda0defa	-0.078550294
213	0x3e376f13	0.17913465
214	0x3d1ed018	0.038772672
215	0x3cc4edf8	0.024039254
216	0x3e402571	0.18764283
217	0x3d5fdddc	0.05465494
218	0xbdee86ed	-0.11646829
219	0x3d225104	0.039628044
220	0xbda8254c	-0.08210239
221	0x3e165e73	0.14684467
222	0xbe3fd49b	-0.18733446
223	0xbde84204	-0.113407165
224	0x3e39cebb	0.18145268
225	0xba8beb00	-0.0010674894
226	0xbe2155c6	-0.15755376
227	0xbdefc4e4	-0.11707476
228	0xbe44cc9e	-0.1921868
229	0x3e19adf7	0.15007769
230	0xbe2b5537	-0.16731726
231	0xbe4c5257	-0.19953285
232	0x3e262d59	0.16228236
233	0x3dde0512	0.10840811
234	0x3e228cf3	0.1587408
235	0x3d810112	0.06299032
236	0x3e2a251b	0.16615717
237	0x3e064bbf	0.13114832
238	0xbcc3d000	-0.023902893
239	0x3bee1dc0	0.00726673
240	0xbe56c524	-0.2097364
241	0xbcccb798	-0.024989888
242	0xbe2898c8	-0.16464531
243	0xbd1e9988	-0.038720638
244	0x3e2f8ea3	0.17144255
245	0x3d260954	0.04053624
246	0xbd77f5c4	-0.060537115
247	0x3e51945d	0.20466752
248	0xbe1aeb46	-0.15128812
249	0x3e12af6d	0.14324732
250	0x3d879e26	0.06621961
251	0xbe4ab523	-0.1979566
252	0x3ccb1300	0.024789333
253	0x3c0dbb20	0.008650571
254	0x3dfd1e56	0.12359302
255	0x3e182977	0.14859568

arith.constant1 f4 [7, 64]
0	0x3dba2914	0.09089866
1	0xbe94d163	-0.29066
2	0x3e6dc532	0.23219755
3	0xbe8cec57	-0.27524063
4	0xbe0f6afc	-0.14005655
5	0x3cf51000	0.029914856
6	0x3e36d5c6	0.17854986
7	0x3dbc69e8	0.091998875
8	0xbe11d67c	-0.14241976
9	0x3e8c0e65	0.27354732
10	0xbe2be19f	-0.16785286
11	0xbd12ce30	-0.035841167
12	0x3cf90570	0.0303981
13	0x3e8522a9	0.26003006
14	0xbe6888fe	-0.22708508
15	0xbe1dd33c	-0.15412611
16	0xbe5c36ed	-0.21505328
17	0x3de82a40	0.113361835
18	0x3d22b098	0.039719194
19	0x3d24d9a0	0.040246606
20	0x3db8c10c	0.09021196
21	0x3d474de0	0.04865825
22	0x3b21b880	0.002467662
23	0x3e01ea54	0.12687045
24	0xbe20459b	-0.15651552
25	0x3c0c5480	0.008565068
26	0x3d9fefec	0.07809433
27	0xbd55fd80	-0.05224371
28	0xbe09f683	-0.13472943
29	0x3e5ccc46	0.21562299
30	0xbe86ca8e	-0.26326412
31	0xbd8c75da	-0.06858416
32	0xbdfd7ad0	-0.1237694
33	0x3e3209a4	0.1738649
34	0x3e66dd9a	0.22545472
35	0x3e16c39a	0.14723054
36	0xbe0a4d60	-0.13506079
37	0xbe7d73d0	-0.2475121
38	0xbe684ac0	-0.22684765
39	0xbe66c0c2	-0.22534469
40	0x3d769eb8	0.06020996
41	0x3cabb2e0	0.020959318
42	0xbe25e403	-0.16200261
43	0xbdf36c82	-0.118859306
44	0xbe8cee4b	-0.27525553
45	0x3e0f82d6	0.14014754
46	0xbe67da77	-0.22641931
47	0x3c84b220	0.016198218
48	0xbdbadc7a	-0.09124084
49	0xbdeadc14	-0.11467758
50	0x3e07db8e	0.13267347
51	0xbe3848f2	-0.17996576
52	0xbe4d9dac	-0.20079678
53	0xbc92b590	-0.017908841
54	0x3e8a5a53	0.27022037
55	0x3dd8762c	0.105694145
56	0x3d9f1824	0.07768276
57	0x3ddef318	0.1088621
58	0x3e192292	0.14954594
59	0xbe882fc6	-0.26598948
60	0x3de439e0	0.11143851
61	0xbe1a6b2b	-0.15079944
62	0x3d5379f8	0.05162999
63	0xbe537b46	-0.20652494
64	0xbe86ba8d	-0.26314202
65	0x3dc57eb4	0.09643307
66	0x3e8e54c7	0.27799055
67	0x3d38c8d0	0.045113385
68	0x3e01bb0e	0.12669012
69	0xbd437808	-0.047721893
70	0xbd8da37e	-0.06915949
71	0x3e0d92aa	0.13825479
72	0xbe7f963e	-0.24959657
73	0x3e4fa1ec	0.20276612
74	0x3e2ab454	0.16670352
75	0xbe92247c	-0.2854346
76	0x3e11405c	0.14184707
77	0x3e2abb5c	0.16673034
78	0xbdf64e04	-0.12026599
79	0xbe3a86f9	-0.1821555
80	0x3e3e2c8a	0.18571678
81	0x3c287ec0	0.010284126
82	0xbe1bba25	-0.15207727
83	0x3e1a9730	0.15096736
84	0x3e71e05a	0.2362074
85	0xbe4562a3	-0.19275908
86	0xbe2b0d0c	-0.16704196
87	0xbe474f49	-0.19463839
88	0xbcf9a240	-0.030472875
89	0x3e2574b6	0.16157803
90	0x3d1b0940	0.03785062
91	0x3e363ecc	0.17797393
92	0xbcf37f50	-0.029723793
93	0x3e051c18	0.12998998
94	0x3e6025ce	0.21889421
95	0x3dc268cc	0.09492645
96	0xbe60b85f	-0.21945332
97	0x3e3d3c50	0.18480039
98	0x3e88dc0b	0.2673038
99	0x3dfd80fc	0.123781174
100	0x3d8d03dc	0.06885502
101	0x3e0af0ae	0.13568375
102	0xbe555a26	-0.2083517
103	0xbe705442	-0.23469642
104	0x3e80e385	0.25173584
105	0xbd82d34a	-0.063879564
106	0xbe5aba53	-0.2136014
107	0xbe3a3174	-0.18182927
108	0x3e013634	0.12618333
109	0xbe444a0a	-0.19168869
110	0xbe9342b7	-0.28761837
111	0xbe68a424	-0.22718865
112	0xbe1cb359	-0.1530279
113	0xbe77ebaf	-0.24211
114	0xbd98478a	-0.0743552
115	0x3e8529e7	0.2600853
116	0xbe308855	-0.17239507
117	0x3dc00428	0.09375793
118	0xbe0d44de	-0.13795802
119	0xbe13d902	-0.1443825
120	0x3da07140	0.07834101
121	0x3ddfd024	0.109283715
122	0xbe632cfa	-0.22185126
123	0xbc1526c0	-0.009103477
124	0xbc688140	-0.014190972
125	0xbdc8cae8	-0.09804326
126	0x3e918429	0.28421143
127	0x3e453bd8	0.1926111
128	0x3e34154c	0.17586249
129	0xbe7d7c64	-0.24754483
130	0xbd8e3c9e	-0.069451556
131	0x3e0f9aa0	0.14023829
132	0xbd154420	-0.036441922
133	0x3acf9600	0.001583755
134	0xbd8a748c	-0.06760511
135	0xbe7914f1	-0.24324395
136	0x3e1e5f48	0.15466034
137	0x3d8f5434	0.06998482
138	0xbdfa2c66	-0.122154996
139	0xbe0d6f83	-0.1381207
140	0xbe3a478c	-0.18191355
141	0xbe28e1a0	-0.16492319
142	0xbc7155c0	-0.014729917
143	0x3e720a86	0.23636827
144	0xbe6f196d	-0.23349543
145	0x3e800a45	0.25007835
146	0x3d1578c0	0.03649211
147	0xbd44b578	-0.048024625
148	0xbc837980	-0.016049147
149	0x3e0ab058	0.13543832
150	0xbe233165	-0.15936811
151	0xbd09f0f8	-0.03367707
152	0x3c40f4c0	0.011777103
153	0xbd8ad36c	-0.06778607
154	0x3e464754	0.19363147
155	0xbe8f4d5c	-0.27988708
156	0x3ce051d0	0.027382761
157	0x3e4d141a	0.200272
158	0xbda70db4	-0.081569105
159	0x3d8437cc	0.06455955
160	0xbe54dc20	-0.20787096
161	0x3e6c9a02	0.23105624
162	0x3e88da43	0.2672902
163	0xbe448182	-0.19190028
164	0x3d9e06dc	0.07716152
165	0x3d4ca268	0.04995957
166	0xbe8caee7	-0.2747719
167	0xbe8c7e6e	-0.27440208
168	0xbe8af175	-0.27137342
169	0x3e137914	0.14401656
170	0xbd346c04	-0.044048324
171	0x3a0dce00	0.00054094195
172	0x3e11c25a	0.14234295
173	0xbdd812e6	-0.105504796
174	0x3e1a2be8	0.15055811
175	0xbe6d8b59	-0.23197688
176	0x3e51ed3a	0.20500651
177	0x3e872d37	0.26401684
178	0xbe579564	-0.21053082
179	0x3af27900	0.0018499196
180	0xbe2178c4	-0.15768725
181	0x3e70daf2	0.23521021
182	0xbe15c966	-0.14627609
183	0xbe48ad53	-0.19597368
184	0x3e5ece0e	0.21758291
185	0x3e80e1a1	0.2517214
186	0xbe25f63c	-0.16207212
187	0x3caabf20	0.020843089
188	0x3e57eb9e	0.21085975
189	0x3e8b9023	0.27258405
190	0xbe2d28e6	-0.16910133
191	0xbe8c1c90	-0.2736554
192	0xbd8cf30a	-0.068822935
193	0xbcb6a200	-0.022294044
194	0x3b175b00	0.0023095012
195	0x3dd8e418	0.105903804
196	0xbcabf520	-0.020990908
197	0xbe863390	-0.26211214
198	0xbe711ef7	-0.23546968
199	0xbe0d4ca5	-0.13798769
200	0x3e80e32b	0.25173315
201	0x3cc317e0	0.023815095
202	0x3c955ca0	0.018232644
203	0xbbe3ff00	-0.0069578886
204	0xbe1978e8	-0.14987528
205	0xbe43666c	-0.1908204
206	0xbe9036fe	-0.28166956
207	0x3d135730	0.03597182
208	0x3e6ee692	0.23330143
209	0x3e50edc6	0.20403203
210	0x3e722c7e	0.23649785
211	0xbe656e7e	-0.2240543
212	0x3e11c3fe	0.14234921
213	0x3e6f539e	0.23371741
214	0xbe365e14	-0.17809325
215	0x3e453f14	0.19262344
216	0x3e726fc2	0.23675445
217	0x3d792c48	0.060833246
218	0xbdeb857c	-0.115000695
219	0xbd3c56b8	-0.04598114
220	0xbe3b8410	-0.18312097
221	0x3e64d06a	0.22345129
222	0x3e40841c	0.18800396
223	0xbe8876f8	-0.26653266
224	0xbda60226	-0.081058785
225	0xbe4d6cf6	-0.20061097
226	0xbe05fe38	-0.13085258
227	0xbdcb6f12	-0.09933294
228	0x3e79bbe2	0.24388078
229	0x3d6a60d0	0.057221234
230	0x3e19ad78	0.1500758
231	0x3e0c910e	0.13727209
232	0xbd4eae68	-0.050459296
233	0xbd9ba6be	-0.07600163
234	0xbc8160e0	-0.015793264
235	0xbd158118	-0.036500067
236	0x3cc94830	0.024570554
237	0x3e6ec2e2	0.2331653
238	0x3d383880	0.044975758
239	0x3d3675a0	0.04454577
240	0xbe571b30	-0.21006465
241	0x3dc2de10	0.09515011
242	0xbe9377d7	-0.28802368
243	0x3e863f0f	0.26219985
244	0xbe61455c	-0.21999115
245	0x3dfc107c	0.12307832
246	0xbb66e600	-0.0035232306
247	0x3df849a8	0.12123424
248	0xbe73e9e4	-0.23819691
249	0x3e24107e	0.16021916
250	0x3e8bbc35	0.27292028
251	0xbe306f47	-0.17229949
252	0xbe653888	-0.22384846
253	0xbe607d4e	-0.219228
254	0xbd141c90	-0.03616005
255	0x3e668292	0.22510746

tfl.pseudo_qconst i1 [64, 128]
0	0xde	-34
1	0xff	-1
2	0x30	48
3	0x49	73
4	0x96	-106
5	0xe9	-23
6	0x55	85
7	0xa5	-91
8	0x05	5
9	0xef	-17
10	0x61	97
11	0x89	-119
12	0xcf	-49
13	0x2d	45
14	0x1b	27
15	0xd5	-43
16	0x6c	108
17	0xd1	-47
18	0xa3	-93
19	0x18	24
20	0x0c	12
21	0xc2	-62
22	0x38	56
23	0x9d	-99
24	0x35	53
25	0x8a	-118
26	0x86	-122
27	0x72	114
28	0x52	82
29	0xae	-82
30	0x56	86
31	0x55	85
32	0xaa	-86
33	0xbd	-67
34	0xb4	-76
35	0x76	118
36	0xcf	-49
37	0x43	67
38	0x43	67
39	0xf5	-11
40	0x39	57
41	0x09	9
42	0x1d	29
43	0xb5	-75
44	0x66	102
45	0x2c	44
46	0x32	50
47	0x68	104
48	0x76	118
49	0x11	17
50	0xe8	-24
51	0xef	-17
52	0x61	97
53	0xd8	-40
54	0xb1	-79
55	0x15	21
56	0x4c	76
57	0x76	118
58	0x43	67
59	0x4b	75
60	0x12	18
61	0xb2	-78
62	0x29	41
63	0x82	-126
64	0xa8	-88
65	0xfa	-6
66	0x8e	-114
67	0xb5	-75
68	0xf6	-10
69	0x1d	29
70	0x3c	60
71	0xc0	-64
72	0xb9	-71
73	0x7c	124
74	0x56	86
75	0x64	100
76	0x15	21
77	0x39	57
78	0xf9	-7
79	0xd1	-47
80	0xc2	-62
81	0x01	1
82	0x62	98
83	0x94	-108
84	0x52	82
85	0x5a	90
86	0x39	57
87	0x83	-125
88	0x1f	31
89	0x06	6
90	0xe6	-26
91	0x7c	124
92	0x56	86
93	0x5c	92
94	0x2d	45
95	0x09	9
96	0x1e	30
97	0xff	-1
98	0x72	114
99	0x1e	30
100	0x72	114
101	0x3c	60
102	0x4c	76
103	0x8a	-118
104	0x5f	95
105	0x87	-121
106	0x5e	94
107	0xaa	-86
108	0xb8	-72
109	0x67	103
110	0xbe	-66
111	0x7d	125
112	0x9a	-102
113	0x25	37
114	0x62	98
115	0x74	116
116	0x54	84
117	0x81	-127
118	0x6e	110
119	0x47	71
120	0x74	116
121	0x7f	127
122	0xcb	-53
123	0x50	80
124	0xf8	-8
125	0x59	89
126	0x97	-105
127	0x39	57
128	0x06	6
129	0x7a	122
130	0x17	23
131	0x74	116
132	0x59	89
133	0xb6	-74
134	0x63	99
135	0x6c	108
136	0x35	53
137	0x36	54
138	0x7d	125
139	0x3e	62
140	0x71	113
141	0x79	121
142	0xa6	-90
143	0xf4	-12
144	0x04	4
145	0x78	120
146	0x68	104
147	0xe9	-23
148	0xce	-50
149	0x41	65
150	0x16	22
151	0x06	6
152	0xfa	-6
153	0x66	102
154	0x0d	13
155	0x8f	-113
156	0x58	88
157	0x34	52
158	0x9c	-100
159	0x98	-104
160	0xe3	-29
161	0xf1	-15
162	0xaa	-86
163	0x9d	-99
164	0xd3	-45
165	0xfc	-4
166	0x36	54
167	0x10	16
168	0x41	65
169	0xda	-38
170	0xfc	-4
171	0xb7	-73
172	0x04	4
173	0x11	17
174	0x57	87
175	0x25	37
176	0x73	115
177	0xb0	-80
178	0x59	89
179	0xe7	-25
180	0x7a	122
181	0xc7	-57
182	0x2c	44
183	0xd3	-45
184	0xaa	-86
185	0xb9	-71
186	0x2e	46
187	0x18	24
188	0x09	9
189	0xc6	-58
190	0x7f	127
191	0x52	82
192	0xd4	-44
193	0xf8	-8
194	0x20	32
195	0x11	17
196	0xe0	-32
197	0x17	23
198	0x0a	10
199	0x6e	110
200	0x4b	75
201	0x14	20
202	0x08	8
203	0x05	5
204	0x32	50
205	0x8c	-116
206	0x04	4
207	0xb1	-79
208	0x3a	58
209	0x7f	127
210	0x50	80
211	0xcd	-51
212	0xa3	-93
213	0xe8	-24
214	0xf9	-7
215	0x6a	106
216	0x41	65
217	0x82	-126
218	0x1f	31
219	0x28	40
220	0xfc	-4
221	0xfb	-5
222	0x4a	74
223	0x07	7
224	0x5c	92
225	0xa7	-89
226	0x3c	60
227	0x28	40
228	0xf3	-13
229	0x67	103
230	0x1c	28
231	0x8c	-116
232	0x6d	109
233	0xfd	-3
234	0x5d	93
235	0x05	5
236	0xa9	-87
237	0x58	88
238	0x2e	46
239	0x95	-107
240	0x9d	-99
241	0x05	5
242	0x30	48
243	0x12	18
244	0x43	67
245	0xa1	-95
246	0xeb	-21
247	0x96	-106
248	0xd4	-44
249	0x6b	107
250	0xca	-54
251	0xba	-70
252	0xec	-20
253	0x11	17
254	0xf9	-7
255	0x65	101
